models/2DCallOptionBasketCorrelated.pth (torch, 827439 bytes, 15 tensors)

layer1.weight f4 [256, 3]
000000 f4 1b f7 3d f8 fb 58 be 77 ca 43 be 80 5e 83 3d
       0.120658785 -0.21189868 -0.19120203 0.06414509
000010 e4 2e 11 be 76 0e 0b 3b 10 6b ff 3d 25 6a 43 be
       -0.14178044 0.0021218336 0.124715924 -0.1908346
000020 03 a4 76 be 25 3b 77 bd bf 84 86 3d 86 6a 91 3d
       -0.24086003 -0.06035914 0.06568288 0.07100396
000030 bd 1c 3d 3e 6b ab b3 bd 3a 26 6c bd 16 28 5a be
       0.18467994 -0.0877293 -0.057653643 -0.21304354
000040 1e 2f aa bd 08 c5 9c bd 95 c8 56 3d f7 12 0a 3e
       -0.08309768 -0.07654768 0.052437384 0.13483797
000050 f2 54 17 3e f2 75 7f 3e 83 0b 2a 3e e3 1e 70 3d
       0.14778498 0.24947336 0.16605954 0.058623206
000060 e0 9d 9b 3d bf 0d 51 3e 67 e4 22 3e 91 35 04 3d
       0.07598472 0.204154 0.15907441 0.032277647
000070 6a b9 22 3e df 52 59 3e 3b 3d c0 3a 60 a4 19 3e
       0.15891042 0.21223019 0.0014666686 0.1500411
000080 cb 10 82 3e 62 62 3d 3e 85 da 91 bd 21 00 24 be
       0.25403437 0.18494561 -0.071217574 -0.16015674
000090 34 7a b0 bc 4e 29 be 3d d1 90 be 3d eb fc 6b be
       -0.021542646 0.09285222 0.09304965 -0.230457
0000a0 73 6c 31 3e 24 4b 5b 3e d2 fb ed 3d c2 b0 13 be
       0.17326526 0.21415383 0.116202965 -0.14422897
0000b0 9a ef 45 be fe 60 22 3d 80 db e2 3d 95 69 4e 3e
       -0.19329682 0.03964328 0.110770226 0.20157464
0000c0 42 d1 06 be 48 c8 22 bc a7 3f 42 bc d4 cb 8f be
       -0.13165763 -0.009935446 -0.011855996 -0.28085196
0000d0 f5 d7 36 bd 24 c6 e3 bd 59 c8 82 bd 2a 53 f6 bd
       -0.044639546 -0.11121777 -0.063858695 -0.12027581
0000e0 5a dc 26 be 47 40 ad bd 6e 35 39 3e 0a bb 0b 3e
       -0.16294995 -0.084595256 0.18086788 0.13645568
0000f0 44 3b af 3e be 71 3a bd ed 27 cb 3d 81 5e 89 3e
       0.34224904 -0.04551863 0.099197246 0.26829913
000100 dd a3 66 be 1a df d6 bc c0 64 f1 bd 32 66 5f 3e
       -0.22523446 -0.02622943 -0.11786795 0.21816328
000110 a4 ee 01 3e 1a d8 79 bd 54 e3 a9 3d 08 7c a5 3d
       0.1268869 -0.060997106 0.082953125 0.08080298
000120 50 ae 9f be 49 30 4d bd 29 2c 02 be b9 5f 27 be
       -0.31187677 -0.050094876 -0.12712158 -0.16345109
000130 31 d8 8e 3e 01 fb 70 3e 49 fe 2f 3e 93 7c 7c 3e
       0.27899316 0.2353325 0.17186846 0.24656896
000140 4f 63 a3 3d 59 4a c0 bd 0b 40 22 3d 37 e9 46 3d
       0.07977926 -0.09389181 0.039611857 0.048562255
000150 44 08 8d be f1 7a 93 bd 4b 72 e5 bd 1b 0b 47 be
       -0.2754537 -0.072011836 -0.1120344 -0.1943783
000160 25 ab 55 3d 3a a8 4d 3d 82 6d 59 be 12 1c 52 3e
       0.05216517 0.05020926 -0.2123318 0.2051852
000170 5a 5d 4e 3e f4 9f 69 be 29 64 a8 ba de aa 06 3b
       0.20152798 -0.22814924 -0.0012847233 0.0020548622
000180 11 9b d4 bd 4f 5e 72 3c bb 04 81 bd 5c 82 48 3d
       -0.10381139 0.014792993 -0.062997304 0.048952445
000190 f3 b9 90 be da da ee bd ee 6e a3 3d 63 f3 0d 3e
       -0.28266868 -0.116628364 0.079801425 0.13862376
0001a0 bb ce ea 3d 09 20 de bd 1c 3e e7 3d 21 d6 a8 3d
       0.11465212 -0.10845954 0.11291143 0.08243967
0001b0 3e a9 b6 bd 89 b9 df 3d ca 6e c5 3d 83 48 aa 3e
       -0.08918999 0.1092406 0.09640272 0.33258447
0001c0 d9 a1 08 3e 2c 95 07 3d df 3f a5 3d a2 ed 1f be
       0.1334299 0.033101246 0.08068823 -0.15617993
0001d0 8c 0d 23 bd ce 3c 11 be 99 4d 30 bc 8a 74 0a bc
       -0.03980784 -0.14183351 -0.010760688 -0.008450637
0001e0 87 3f 4f be c1 1a c6 bc 37 58 ee bc c3 f4 22 bd
       -0.20239078 -0.02418268 -0.029094798 -0.039784204
0001f0 39 ff 5f be be 98 a8 bd eb f5 62 3e b7 40 31 be
       -0.21874703 -0.08232258 0.22164123 -0.17309843
000200 d9 a0 38 be ae 9b 87 bb 5e 7c 9d 3e 3b 51 10 3e
       -0.18030109 -0.0041384315 0.30758947 0.14093487
000210 b6 77 35 be 55 6f da 3d 61 a5 60 3e 62 82 f9 3c
       -0.17721447 0.10665766 0.21938087 0.03045768
000220 21 ef 04 3d 24 06 f5 3c 80 cc 11 3e b3 59 83 be
       0.032454614 0.029910155 0.14238167 -0.25654373
000230 df 94 0f be 2c d1 9a 3b c8 34 73 3e 06 c6 85 3e
       -0.14021634 0.0047246423 0.23750603 0.26127642
000240 dc 3d 97 3d 9f 44 bf bd 8e 42 c5 bd b7 b0 8e bb
       0.073848456 -0.0933926 -0.09631835 -0.004354562
000250 67 0d aa bc a9 18 8f bc bc 28 17 be 96 19 ba bd
       -0.020758344 -0.017467814 -0.14761633 -0.090869114
000260 5c 75 af bd 45 b6 1f bd 67 9d ed bd 37 12 23 be
       -0.085673064 -0.038992185 -0.11602288 -0.15924917
000270 c7 af ba 3d 24 41 3a 3c 28 78 de 3b f5 5e ca 3d
       0.09115558 0.01136807 0.006789226 0.09881393
000280 41 cb 24 be 3c 2b 73 3d 50 38 0e 3e f3 cf 31 bd
       -0.1609316 0.059367403 0.13888669 -0.043411206
000290 18 37 2f bd 14 17 40 3e 63 c5 71 bc c7 ac c8 bc
       -0.04277715 0.18758804 -0.014756533 -0.02449645
0002a0 2d ed 1a bc 8c a6 15 3d 40 de 11 3d 8a 5d 02 3e
       -0.009455961 0.036535785 0.035612345 0.12730995
0002b0 0b b1 66 bd 23 38 c9 bd 22 f9 05 3e 8b 75 50 3e
       -0.056321185 -0.0982516 0.13083318 0.20357339
0002c0 6d d2 ff 3d 5b 2d 6d be b8 6e 71 3b b0 1c cc bb
       0.124913074 -0.23161833 0.0036839675 -0.0062290058
0002d0 91 bc aa bd 23 ae 65 3e 10 a1 ff 3d 78 be 7c 3d
       -0.083367474 0.22429709 0.12481892 0.061705083
0002e0 bf b5 24 3e 99 5b 22 3e 38 8b fb bc 81 90 08 be
       0.16084956 0.15855254 -0.030706033 -0.13336374
0002f0 62 f1 13 be 28 4f e0 bc 1a 08 79 3b 06 5d 0d 3b
       -0.14447549 -0.027381495 0.0037999214 0.002157034
000300 32 be 3e 3d ac 55 be 3d 56 3f 41 3e d3 6e 93 be
       0.046568103 0.09293684 0.18871817 -0.2879549
000310 7f 2f 17 3b 43 7b 50 bb ab 96 8e 3e a3 ab f7 3c
       0.0023069081 -0.003181175 0.27849326 0.03023321
000320 89 77 b4 3c 82 e9 7e bd b0 ef 69 be 51 f5 03 be
       0.022029655 -0.06223441 -0.2284534 -0.1288655
000330 09 09 9c 3e 70 3a ee 3c 2d f2 19 3d 7b e7 37 3e
       0.30475643 0.0290806 0.037584472 0.17959397
000340 c3 98 21 be 4c 72 4d be 1b 6e 33 be a2 c1 a3 3b
       -0.1578093 -0.20063132 -0.1752247 0.004997448
000350 da b5 62 3b 99 5f 9d 3d ff 52 fd bc 4c b8 09 bd
       0.0034593255 0.076842494 -0.030923365 -0.033623025
000360 4a e5 72 3e 47 1b 08 3d 48 a3 09 3d 80 be 16 be
       0.2372028 0.03322914 0.033602983 -0.14721107
000370 25 60 86 3e 18 18 89 3e 2a 5c be 3c 6f a2 4c 3e
       0.26245227 0.26776195 0.023237307 0.19983838
000380 be fc 4b 3e c4 9f d9 3c 89 98 d8 bc 0a ac ca bc
       0.19920632 0.02656544 -0.026439922 -0.024740238
000390 79 10 0a 3e a9 1a aa 3d 67 0b ae 3d e4 0c 0d 3e
       0.13482846 0.08305866 0.084982686 0.13774449
0003a0 b2 b5 b1 3d b1 73 c0 3d ea 94 69 3d be eb fe bd
       0.08677234 0.093970664 0.05702678 -0.12447308
0003b0 ac 57 0d be 4a 99 3f 3e bb 7b 08 be 6e 82 9f bd
       -0.13802975 0.18710819 -0.1332845 -0.07788549
0003c0 4a 9a a5 3e 65 4b fe 3b 1d fe bb 3c 31 d7 04 3e
       0.32344276 0.0077604526 0.02294832 0.12972714
0003d0 b7 99 4a 3e 83 ab 24 3e 1d 81 b3 bd 32 21 38 bd
       0.197852 0.16081052 -0.08764861 -0.044953533
0003e0 31 f6 7f be 83 bc 1e bd 83 0a ef 3d 87 55 8b 3e
       -0.24996258 -0.038753998 0.11671927 0.2721369
0003f0 32 88 7f 3d 9a 0d 40 3b ca af 99 3a 22 78 78 be
       0.062385745 0.0029304982 0.0011725363 -0.24264577

layer1.bias f4 [256]
000000 a0 e0 50 3e 35 79 e1 3e fc 07 b5 3e ce 5a 9d bd
       0.20398188 0.44037786 0.35357654 -0.07683335
000010 98 1f 21 be bb 13 bf 3e a8 b9 ab be fd dc f3 be
       -0.15734708 0.3731974 -0.33540082 -0.47629538
000020 9f 84 e1 be d1 5e de be 12 47 ca be 75 b6 45 bd
       -0.44046494 -0.43431714 -0.39507347 -0.048269708
000030 09 89 29 be a6 4e 4c 3e fa 64 5d 3e 3f bc b4 be
       -0.16556181 0.19951877 0.21620551 -0.3529987
000040 35 2b 1d 3e bf f0 e2 3e 25 32 b4 3e 7a 6a 72 be
       0.15348513 0.443243 0.35194507 -0.2367343
000050 6a 16 ce be 4d a4 c6 bd ec 0d 64 be b8 15 d5 bd
       -0.40251476 -0.09699307 -0.22270936 -0.10404533
000060 b4 97 dd 3e f2 02 c0 be 5a ed 03 bf c0 02 db 3b
       0.43279803 -0.37502247 -0.51534045 0.0066836774
000070 59 fe d1 3e a2 96 bd 3d 98 26 0d bd 0d 79 6b 3e
       0.41014364 0.092572466 -0.034460634 0.22995396
000080 55 c7 f6 3d bc 16 e7 3e 7d 23 ab be ba f8 c3 bd
       0.12049738 0.45134532 -0.33425513 -0.09568925
000090 ee 04 ea bd 49 3c 00 bf f5 06 f0 3d a4 1d 24 3e
       -0.114267215 -0.5009199 0.11720077 0.16026932
0000a0 ce 9d 83 3e b4 5b af 3e 38 d6 a7 be 41 c8 00 bf
       0.25706333 0.3424965 -0.32780623 -0.50305563
0000b0 66 34 12 be 7b 80 c3 bd 42 a6 8e 3e 99 08 04 bf
       -0.14277801 -0.0954599 0.2786122 -0.5157562
0000c0 c0 92 f0 3d b2 4f 26 3d e9 aa a7 3e d2 00 a3 3e
       0.1174674 0.040603347 0.32747582 0.31836563
0000d0 13 44 e9 bd ce 07 01 3e f5 79 5c bd 8f 4b 1a be
       -0.11389937 0.12600634 -0.053827245 -0.15067886
0000e0 4b a2 7c bd b9 fe e1 3c 87 71 ed be d1 40 7f 3e
       -0.061678212 0.027587282 -0.46375677 0.24927069
0000f0 64 d5 75 be 7c 8e c4 be 51 b0 a2 3e e6 44 b7 3c
       -0.24007183 -0.38389957 0.31775144 0.02237172
000100 1b 5e a9 be 95 bc 94 3e 70 dc ab be 17 47 da 3e
       -0.3307961 0.29050127 -0.33566618 0.42632362
000110 48 b4 c1 be 22 f0 38 3e 17 52 2b 3e 22 76 1c bc
       -0.37832856 0.18060353 0.16730534 -0.009549649
000120 e0 f1 9b be dd 2a 0b bf 01 9a dc be 10 10 c8 3c
       -0.30457973 -0.5436228 -0.43086246 0.024421722
000130 d4 8f 9b be 25 1f a4 be 55 39 ce 3c b8 dc e9 3c
       -0.3038317 -0.3205501 0.025173822 0.02854763
000140 bd eb b6 be 21 47 fa be 61 b6 c9 3e 7f 40 cc be
       -0.3572673 -0.48882392 0.39396957 -0.39892957
000150 58 a2 8a bd 1e 45 6b 3e 5d a6 c9 be bd f0 92 be
       -0.06769246 0.22975585 -0.39384738 -0.28699294
000160 51 17 82 3a 1f 17 84 3e 57 12 cd bd 57 65 a0 bd
       0.0009925162 0.2579889 -0.10013264 -0.07831829
000170 a3 20 40 bd 90 ce 98 be e4 b7 d2 3c 3f 50 b0 be
       -0.046906125 -0.29845095 0.025722452 -0.34436223
000180 80 d5 ff 3c 5b 7a f7 3e 99 b6 ae 3e 47 b3 43 3d
       0.031229734 0.48335537 0.34123686 0.047778394
000190 51 8e 0b bf 23 92 a1 be 4d a5 ae 3e b2 15 ba 3e
       -0.5451403 -0.31556806 0.3411049 0.36344677
0001a0 8b e4 58 3d 13 a7 65 be 20 23 c6 be 4d 11 dc 3e
       0.05295233 -0.22427015 -0.38698673 0.4298195
0001b0 c2 8b dd 3c 90 17 d6 3d c9 63 83 3d 56 4b 8c be
       0.02704418 0.10453713 0.06415517 -0.27401227
0001c0 c2 ff b5 be c8 18 f6 3e 72 18 c1 be 55 fd a8 3e
       -0.3554669 0.48065782 -0.37713963 0.33005777
0001d0 61 58 74 3d 86 a0 9a be 7e 72 d7 bd 59 3e e9 be
       0.059654597 -0.30200595 -0.105198845 -0.4555538
0001e0 33 41 86 bd bb 76 ad be 75 bc c0 3e 3d 01 6a be
       -0.065554045 -0.33879647 0.3764378 -0.22852035
0001f0 a2 1b 62 3e 4c 7c bc 3e bc 21 b0 be 19 0d 9a be
       0.22080854 0.3681358 -0.34400737 -0.30088118
000200 a3 19 9c 3e 7b ba c5 3e df 34 b8 be 21 93 8a be
       0.3048831 0.38618836 -0.35977837 -0.27065375
000210 5d 88 f2 bc 16 b2 53 be 33 54 c1 3e f1 c6 e6 bd
       -0.029606039 -0.20673403 0.3775955 -0.11268414
000220 7b 3c 1b 3e 2b 0f 84 3e fb ef 2a 3e f6 0b a3 bd
       0.1515979 0.25792822 0.16693108 -0.07961266
000230 e0 e0 ff 3d 43 5d 97 bc a0 27 8b be 44 07 90 be
       0.124940634 -0.018477088 -0.2717867 -0.28130543
000240 4d 6e 92 3e fc ca d9 3d e4 08 89 3e 51 d2 39 be
       0.28599778 0.10634419 0.26764596 -0.18146636
000250 3f 13 9c 3e 72 f1 9a be 70 b2 96 3e 3e 01 00 3f
       0.30483434 -0.30262333 0.29433012 0.50001895
000260 71 99 d4 3e a4 9a 94 3e aa 6a 0d be bb 74 ca 3c
       0.41523317 0.2902423 -0.1381022 0.024713865
000270 38 ba bd 3e f8 3a ac 3e e1 e4 92 3e 27 75 91 3e
       0.37056136 0.3363874 0.28690246 0.28409693
000280 0d 14 c0 be d6 94 43 be 05 72 e4 be 71 1e fc 3e
       -0.37515298 -0.19099745 -0.4461824 0.49241975
000290 a3 89 6d 3e 40 21 85 3e e5 07 80 3e e0 f5 2c 3e
       0.23197035 0.2600193 0.25006023 0.16890669
0002a0 e2 c8 5c be 01 bd 4b be 80 7e a2 3e 5d 95 62 bd
       -0.21561006 -0.19896318 0.31737137 -0.055318225
0002b0 7d 57 7d be 5b 14 51 3e 90 eb c7 bd d9 38 79 3e
       -0.24740405 0.20417921 -0.09761727 0.24338092
0002c0 77 5a ed 3e 94 75 a3 3e bb 25 8a be a3 8d c9 3e
       0.46358082 0.31925642 -0.2698191 0.39365873
0002d0 49 b0 b4 be 1d 32 db 3e 0a d7 04 3f c2 4f eb 3e
       -0.35290745 0.4281167 0.51890624 0.45959288
0002e0 6f 34 14 be 18 10 d7 3e d2 a4 36 be 75 03 00 bf
       -0.14473127 0.42004466 -0.17836311 -0.50005275
0002f0 a9 1c 85 3e c7 12 ad be 97 38 a2 3e b9 43 a4 be
       0.25998428 -0.33803388 0.316838 -0.32082918
000300 f1 24 d9 be 4c d2 8b be fd d2 f7 3d e7 07 f6 bd
       -0.42410997 -0.2730888 0.1210079 -0.12013226
000310 04 32 31 3e a1 c5 18 be 8e ad 88 bc bc eb e2 3d
       0.17304236 -0.1491914 -0.01668432 0.11080119
000320 7f 5d c5 3e 39 8d eb bd a4 dc a8 be 2e fc 99 bc
       0.38547894 -0.115015455 -0.32980835 -0.018797006
000330 58 29 c9 3d 94 fb b9 be b1 4e ed 3d 57 e2 03 3e
       0.09822339 -0.3632475 0.11587275 0.1287931
000340 5e d5 cf be d5 2b 0d 3f 94 1c c5 3e 31 22 f4 be
       -0.40592474 0.5514501 0.38498366 -0.47682336
000350 2a f8 c0 3d 99 ca 94 bc cd 9d be 3d 18 13 a9 3e
       0.094223335 -0.018163012 0.09307442 0.3302238
000360 53 f7 93 bd 27 3c 85 3e b1 74 19 be a2 d7 1f be
       -0.07224908 0.26022455 -0.1498592 -0.15609601
000370 9c 7c 4b 3c 13 aa 83 3e 06 12 bc 3e 31 e0 5f 3e
       0.012419846 0.25715694 0.367325 0.21862866
000380 9a f3 a4 3e 65 4a e3 be ac bb 37 be e2 04 b0 be
       0.32217103 -0.44392696 -0.17942685 -0.34378725
000390 9a ae 2a be b3 29 75 be 37 2e d4 be d2 ec ca 3e
       -0.16668168 -0.23941688 -0.4144151 0.39633805
0003a0 fb ce 85 be ea c8 ac be eb 20 d5 bd 0e 91 13 bd
       -0.26134476 -0.33747035 -0.10406669 -0.036027007
0003b0 d7 71 c5 bd 6d c6 fd be 8b 01 e8 3d 4f e3 01 bf
       -0.09640854 -0.4956545 0.11328419 -0.5073747
0003c0 22 2f c2 be 87 35 a8 3e 79 79 46 3e 78 bc ae 3e
       -0.37926584 0.32853338 0.19382276 0.34128165
0003d0 ff bc f2 3e 84 64 ce 3e f1 36 ad bd a9 ab 33 3e
       0.47409818 0.40311062 -0.08457745 0.17545952
0003e0 55 4c e3 be 71 82 cd 3e 3d 9d 02 bd 3d c6 a6 3e
       -0.44394174 0.4013858 -0.031888235 0.3257312
0003f0 78 1e f8 be 91 25 cb 3e af 33 23 be 2c 99 6b 3d
       -0.48460746 0.39677098 -0.15937684 0.057519123

layer2.weight f4 [256, 256]
000000 f3 1c d9 bd 12 51 46 bc a3 73 31 bd 2f 6a 52 3d
       -0.10601225 -0.01210429 -0.04332317 0.051370796
000010 81 d9 00 bd cd 57 3f 3c 74 3b 2b 3d d4 90 39 3d
       -0.031457428 0.011678648 0.041804746 0.045304134
000020 06 d6 4f bd b9 0e d5 3d a4 98 13 3e 6e d8 04 3d
       -0.050741218 0.10403199 0.14413697 0.032432966
000030 cd 4e 2a be dd df 21 3e f5 a7 ee bd 2e d5 99 bd
       -0.16631623 0.15808053 -0.11653129 -0.07511364
000040 c0 c1 ae 3b 87 25 af 3c 92 76 bb 3d b1 5f 94 bd
       0.0053331554 0.0213802 0.09153475 -0.07244814
000050 ea 5f d1 bc fb 29 6f be 84 18 3f 3e 15 27 e3 bc
       -0.02555843 -0.23355858 0.18661696 -0.027728597
000060 1f 17 15 bd ce 94 1a 3e 84 4c 1b be c3 6d 48 3d
       -0.036399003 0.15095827 -0.15165907 0.048932802
000070 4b 18 d1 3d 1a 6e 83 bd 17 1b 17 3e 7f 9f c8 3d
       0.10209712 -0.064174846 0.14756428 0.097960465
000080 3f 9f 4a bc 30 da aa bd 87 12 97 bd 6d 91 70 3d
       -0.012367069 -0.08342397 -0.07376581 0.05873244
000090 47 f1 a5 bd fc 11 3d 3c 15 76 95 bd 56 9b 28 bd
       -0.081026606 0.011539932 -0.07297913 -0.041163765
0000a0 6c 15 b3 bd 1e ec b0 3c 5c 77 40 bd 85 a0 8f 3e
       -0.0874432 0.021596964 -0.04698883 0.28052154
0000b0 15 b1 d2 3d a2 c4 97 3c 3a 02 e0 bd fb d3 43 3e
       0.10287682 0.018526379 -0.10937925 0.19123833
0000c0 07 f4 da bc 5b 3d 6f bd d1 26 31 bd aa fe 8c bc
       -0.02672769 -0.058408123 -0.04324991 -0.017211277
0000d0 f5 72 a1 3c 86 2b f0 bd 3e c1 90 3d e6 b4 b8 bd
       0.019708136 -0.117270514 0.07068108 -0.09018879
0000e0 49 a4 43 bb 60 6a ca 3d 4d c1 0c 3d 17 25 50 3d
       -0.002985256 0.09883571 0.034364033 0.05081662
0000f0 5f c8 29 3e bf c5 80 3b af a6 67 bd 38 3d 21 3d
       0.16580342 0.003929823 -0.056555446 0.039365023
000100 84 f0 12 3d 37 51 b7 3d 90 07 b3 3d 2a b4 c6 bd
       0.035873905 0.089510374 0.08741677 -0.09702332
000110 d3 01 9b bd 8e 46 ff bc fd f6 a2 bc 2c d5 3f bd
       -0.07568707 -0.031161573 -0.019893164 -0.046834156
000120 8e 1a c4 bd 84 30 dc 3d 34 f0 a5 3e de d9 83 3d
       -0.095753774 0.10751441 0.32409823 0.06438039
000130 ed e2 e7 3b 64 96 36 bd 20 a1 15 bd 96 20 43 3d
       0.007076612 -0.044577017 -0.036530614 0.0476385
000140 11 8e 18 bc 44 16 2f bd 54 6c a3 bd 44 01 27 3e
       -0.009311215 -0.042745844 -0.07979646 0.16309077
000150 1b a6 62 bd 7f 5b f8 3c f8 f9 ae 3d 41 3b 59 3e
       -0.05533419 0.030317066 0.085437715 0.2121401
000160 d0 f5 9f bd b6 c3 d4 bd 10 fd bf bd eb 3e 10 3d
       -0.07810557 -0.103888914 -0.0937444 0.035216253
000170 df 31 7c 3b cd 33 63 bd b2 03 fb bb d4 e4 36 3e
       0.0038481874 -0.055469323 -0.0076603526 0.17860729
000180 39 bd 75 bc cd a0 45 be a0 ba 61 bd 55 78 a8 bd
       -0.0149987275 -0.19299622 -0.05510962 -0.082260765
000190 3d 4d cb 3d 86 44 4b 3d f9 c6 6d bd 16 3e e2 3d
       0.099268414 0.049625896 -0.058051083 0.11046998
0001a0 94 62 d8 bd 0f 0c 86 3c 03 62 9b 3d ab 32 19 3e
       -0.10565677 0.016363172 0.075870536 0.14960735
0001b0 d0 13 0f 3d ec 81 9d 3b 52 8d 5d bd b9 94 71 3e
       0.034931004 0.0048067477 -0.05408985 0.2359189
0001c0 72 4e 8f bd 6a 46 b9 bc 89 50 ca bd 26 8c 10 bd
       -0.06997384 -0.022616584 -0.09878642 -0.035289906
0001d0 72 a6 14 be 1e 2a 0b 3d d9 68 81 3d 25 1c d3 3d
       -0.14516619 0.033975713 0.06318826 0.103081025
0001e0 84 c1 cc 3d 6d bd 61 3d 16 f9 fa 3d e9 ae b5 3b
       0.09997848 0.05511229 0.122545406 0.0055445326
0001f0 90 5b 65 3d 37 01 38 bd 31 d6 dc 3d cd a1 dd 3d
       0.055995524 -0.044923034 0.10783041 0.10821877
000200 bd 2f 73 bc fd 80 b4 bd 09 b2 04 3e d1 71 d3 3c
       -0.014842925 -0.08813665 0.1295854 0.025811108
000210 9b 0d a0 bd 8d 09 28 3d f3 d7 b3 3d 7c 21 f4 3c
       -0.07815095 0.041024733 0.087814234 0.029801123
000220 fc 37 5f bd ed b8 ea bc 83 11 03 3e c3 e5 d4 3d
       -0.05449675 -0.028652633 0.12799649 0.10395386
000230 46 e0 58 bd 10 9a 72 3d 1b 52 0f bd a1 ce 0b 3d
       -0.05294826 0.059228957 -0.03499041 0.034132604
000240 69 3a ba 3c 7a 8e 94 3b 8f 8b 99 bd 54 72 b3 3d
       0.02273293 0.004533586 -0.07497322 0.08762041
000250 02 d0 0c bc b1 32 95 3d 9a f3 12 3d 37 aa 9e bd
       -0.008594515 0.07285059 0.035876848 -0.0774731
000260 07 91 5f bd 90 d0 09 3e af 0c bb bc 7f e5 e0 bc
       -0.05458167 0.13458467 -0.022833196 -0.027453182
000270 8e cf 83 bd 0d a3 00 3b 12 f2 ee bc 3d ef 85 3c
       -0.06436072 0.0019628436 -0.029168162 0.01634943
000280 45 36 fe 3d 0e fd 70 3e 27 60 b9 3d 3b 57 8f bd
       0.12412695 0.23534033 0.09051543 -0.0699906
000290 47 d4 35 be 2b 6f c5 bb 4e a1 90 be 3e 75 8a bd
       -0.17756759 -0.006025215 -0.28248066 -0.067606434
0002a0 8a 40 9a 3d 14 50 84 bd 77 9e 43 3c de 61 4c bd
       0.07531841 -0.06460586 0.011939636 -0.04989802
0002b0 93 f6 f6 3c 9c 56 f0 bd 8a ae fc 3d cd 36 a1 bd
       0.030146873 -0.117352694 0.12337978 -0.078717805
0002c0 28 3e 02 3e dd fc a1 bd d4 db ce bd dc 52 74 bd
       0.12719023 -0.07909558 -0.10100523 -0.059649333
0002d0 b7 d0 4e bc 26 08 f6 bb 5b 03 14 be 2d 84 a7 bc
       -0.012623004 -0.0075082956 -0.14454405 -0.020448769
0002e0 95 e8 9c bd c8 9e 79 bd 74 21 d6 3d 53 b9 9f 3d
       -0.07661549 -0.06094244 0.104555994 0.0779902
0002f0 ec 19 cc bd 3c ac 33 bc 4b 3d 34 bd 63 3a d6 3c
       -0.09965882 -0.010966357 -0.044003766 0.026150888
000300 2c 0e e4 3d de 9b c6 bd 3c 32 cc 3c 55 25 d9 bc
       0.111355156 -0.09697698 0.024926297 -0.02650706
000310 49 9b 2c bd 45 1b bd 3d da d4 0b 3e 27 ec 96 3d
       -0.04214028 0.09233717 0.13655415 0.07369261
000320 e5 67 35 bd 9e 1b 8a bc df db 98 bd b3 66 74 bc
       -0.044288535 -0.016858872 -0.07463812 -0.0149170635
000330 b8 fc 00 3e b7 dc da bd 38 0c 82 bc 65 d8 93 3d
       0.12596405 -0.10686629 -0.015874967 0.07219008
000340 34 5e 78 3e 08 d2 fe bc 3c b7 6c bd a3 e3 e6 3d
       0.24254686 -0.03110601 -0.057791933 0.11273887
000350 b2 3b 0b bd af 04 87 3d cc 3e ad 3d 58 cb f3 bd
       -0.033992477 0.0659269 0.08459243 -0.11904019
000360 7b 91 c2 bc fb a2 f9 bc 44 c8 b2 3c f2 4e d5 bc
       -0.023751011 -0.030473223 0.02182401 -0.02603862
000370 7b c7 a8 3c f7 42 4d be 3b b8 05 3e 80 06 a6 bd
       0.020602932 -0.20045076 0.1305856 -0.081067085
000380 80 81 03 bd 1d 3d f3 3c 79 4f f8 3d d0 90 8e 3c
       -0.032105923 0.029692227 0.12124533 0.017403036
000390 ef 53 f3 bc 1a d0 b9 3d d1 89 0c 3e a1 8d 71 bc
       -0.029703109 0.09072895 0.13724448 -0.01474324
0003a0 70 c3 10 3e 10 37 4d bd c2 8d 31 bc c7 42 f5 bd
       0.14137053 -0.05010134 -0.01083702 -0.119756274
0003b0 0c 0f 67 bd 25 7f 0a 3c 0c 93 91 bc 96 0a 83 3d
       -0.056410834 0.008453165 -0.017770313 0.063985035
0003c0 ee 0b 77 3d b5 94 12 bd 7b f6 00 bb 7c b8 8b 3c
       0.06031411 -0.03578635 -0.0019678164 0.017055742
0003d0 93 45 80 3d 2e 9c 00 be 9f cf a9 3c 68 e5 90 bd
       0.0626327 -0.12559578 0.020728884 -0.07075006
0003e0 eb 23 7f 3e 34 9e 77 bd f9 ca b2 bd 4c 8e a5 bd
       0.24916045 -0.06045361 -0.0873012 -0.080837816
0003f0 90 63 31 3e 21 f0 21 3d a2 0a dd bb 5b 03 76 3d
       0.17323136 0.039535645 -0.0067456523 0.060061794

layer2.bias f4 [256]
000000 0b f1 c4 bd cb af 4a be 06 ef 73 bd 91 2c 37 3d
       -0.09616288 -0.19793622 -0.059554122 0.044720236
000010 5d bd 94 bd 05 5c c2 3d 74 98 db 3d 90 d2 4d 3d
       -0.07262681 0.094902076 0.107224375 0.050249636
000020 da 77 63 bc fe 75 b5 3d 7e fe 36 3d 47 29 55 bc
       -0.013883555 0.08860396 0.044676296 -0.01301033
000030 29 66 e4 bd 30 f6 2f be f5 01 c3 bc 60 83 1b 3d
       -0.11152298 -0.17183757 -0.023804644 0.037967086
000040 5e 3c eb bd c7 72 16 3d 57 d0 9f 3d 0f 90 11 bc
       -0.114861235 0.036730554 0.078034095 -0.008884444
000050 42 ef 68 bd b1 6f bf 3b 2a f0 38 3d 37 6b 82 3d
       -0.0568688 0.005842172 0.045150913 0.06368106
000060 f5 29 7b bc db a5 84 bc 41 f3 0f be ed e4 17 3d
       -0.015329828 -0.016192367 -0.14057638 0.037083555
000070 28 fe f3 bc 91 31 97 bd 9f 95 c7 3b 17 6a 12 3d
       -0.029784277 -0.07382501 0.0060908343 0.035745706
000080 c9 5b 58 3b 15 2e 91 3d d6 f5 be bc bd 26 09 be
       0.0033013693 0.070888676 -0.023310583 -0.13393684
000090 c6 43 06 bd af 56 25 3e 65 07 48 3d c5 8d f6 3c
       -0.032779478 0.16146348 0.048835177 0.030096898
0000a0 ee cb 12 be c3 0d f0 3c 8b 92 4f 3e 24 9a 28 3c
       -0.14335606 0.029303437 0.20270745 0.010290656
0000b0 e9 b0 61 bd 13 dd 95 bd 97 88 07 3c 80 eb 20 bd
       -0.055100355 -0.07317557 0.008272312 -0.03928709
0000c0 99 29 96 3d 67 58 99 3c 7a 0d 26 3e 30 74 e2 3d
       0.07332153 0.018718911 0.16216078 0.11057317
0000d0 b9 ff 9c bd 18 13 00 bd 85 1a c5 bc 57 a6 01 bd
       -0.07665963 -0.03126821 -0.024060497 -0.031652775
0000e0 64 9b 1c be 1e 70 8a 3d 90 f8 4c bc 76 17 5b bd
       -0.15293652 0.06759666 -0.012510434 -0.05348917
0000f0 73 77 ea 3d d2 80 b8 bd ae bb f2 3d 13 39 27 be
       0.114485644 -0.090089455 0.11852203 -0.16330366
000100 a2 66 48 3d 91 ce b7 3d 82 2e 36 bd 55 d5 a8 3d
       0.048926003 0.08974946 -0.044477947 0.08243815
000110 79 10 7c 3d d3 75 c8 3d 91 2b 89 bd c6 03 b5 3d
       0.061539147 0.09788098 -0.06697763 0.0883861
000120 b7 a0 4f 3d 22 5b e4 bd b4 06 2a 3e 1a cf a5 bd
       0.05069038 -0.11150195 0.1660412 -0.08096142
000130 c0 b5 b7 ba 29 61 2d be 37 ac 05 3e 7c 7f c7 3c
       -0.0014015958 -0.16931595 0.13053976 0.024352781
000140 a4 d2 dc 3d 32 1b e1 bd 9d 60 34 bd 57 0d 1d 3d
       0.10782364 -0.10991515 -0.04403745 0.0383428
000150 cd 14 15 be 0a 52 37 3d 93 f4 fc bd ba 72 2e 3e
       -0.14558716 0.044755973 -0.12351336 0.17035952
000160 cc 8d 01 3d 56 d1 a3 bc 32 7f 11 bb a4 c0 9b bc
       0.03162937 -0.01999728 -0.0022201058 -0.019012757
000170 e8 18 af 3d a9 4a cd bc 78 bf be bd 42 11 d5 bc
       0.08549672 -0.025060015 -0.093138635 -0.026009206
000180 69 a4 c3 bc 35 b9 78 3c 3d 7b d2 3d 11 38 f4 3c
       -0.023882108 0.015180876 0.10277412 0.02981189
000190 8c 8d f4 bd fd 79 11 be 1a 6e ae 3c 2f f2 b9 bd
       -0.119410604 -0.14206691 0.021292735 -0.09079396
0001a0 6c 45 df 3c 27 99 fa bd 3c fa e5 bd af fb d5 3d
       0.027254783 -0.12236243 -0.11229369 0.104483955
0001b0 4e 6a 05 bd 60 79 27 3e f3 3f 88 3d d7 e7 f0 3c
       -0.032572083 0.16354895 0.06652822 0.029407425
0001c0 bb 8a ee 3b d8 71 0b 3e dd c5 02 be bd 2d 4e 3a
       0.0072797216 0.13617647 -0.12770791 0.0007865092
0001d0 7e d6 88 3b 7a b5 0b 3e 33 fe ce 3c b4 7a 20 3c
       0.00417596 0.13643447 0.025267696 0.00979488
0001e0 a9 62 9e 3d 57 eb 31 3d f1 0a b7 bd fc 1a a9 3d
       0.07733662 0.04343733 -0.08937634 0.082571
0001f0 bf 21 ce 3d 8f 9c ec bb 71 3d 53 bc 0d c8 21 3e
       0.1006503 -0.0072208117 -0.012893067 0.1579897
000200 c0 83 11 3e 35 6d 8f 3c 35 a0 de 3d b0 29 a0 bb
       0.14210415 0.017508129 0.10870401 -0.004887782
000210 83 24 31 3d 18 55 f5 bc ce 6b 66 3d 3f 80 a3 3c
       0.04324771 -0.029947802 0.056255154 0.019958613
000220 4f 58 6a bd 22 1f ce 3d 5d bb a4 3d 20 87 52 3d
       -0.057213124 0.10064532 0.08043549 0.051398396
000230 b7 00 ef 3d 7d d1 6d 3d 6d 41 78 3d cd 01 51 bd
       0.11670058 0.05806111 0.06060927 -0.051027108
000240 df c4 8e 3d aa ed 99 bd 32 65 15 3c d9 f1 47 3d
       0.06971144 -0.07516034 0.009118365 0.04881463
000250 a1 29 b8 3d 35 51 c5 3c 98 a5 94 bc 11 ae be 3d
       0.08992315 0.024086574 -0.018145368 0.09310544
000260 64 87 d1 3d 6a 2b 94 bd 8b 0c 66 3d 5c c7 33 bd
       0.10230902 -0.07234843 0.056164306 -0.043891296
000270 a9 84 63 bc ec 15 c8 bd 3b 49 a9 bd 4f b2 99 bc
       -0.013886609 -0.09769806 -0.08265921 -0.018761782
000280 d7 47 67 3c c4 26 a3 3c 49 82 17 bd 5e 82 24 3e
       0.014116249 0.019915946 -0.036989484 0.16065356
000290 d0 47 c7 bd a6 31 03 3c 85 73 8f bd a4 85 06 3d
       -0.09730494 0.008007443 -0.070044555 0.032842293
0002a0 8a 06 ad 3d b6 ff a6 3d ce 0b 56 bd 4c 60 9f bd
       0.08448513 0.08154242 -0.05225735 -0.07782039
0002b0 12 d7 5c 3c e7 48 7c bb 00 a9 4e bd d1 76 0c bd
       0.013479011 -0.0038495602 -0.05045414 -0.034293
0002c0 19 87 0b 3e 26 3e d0 bd 12 c5 c2 bd 48 55 c7 3c
       0.13625754 -0.10168104 -0.095102444 0.024332657
0002d0 75 04 e5 3d 9e d1 af bc a6 08 13 bc 66 3d a9 bd
       0.11182491 -0.021462258 -0.00897423 -0.08263664
0002e0 34 8c 03 bc 43 9d 1f 3e 6d ee 0a bd 2a 46 f8 bc
       -0.0080290325 0.15587334 -0.033918787 -0.030306894
0002f0 f6 e6 d6 bd f4 8c 56 3d bb ee 12 bd 9a a6 54 bd
       -0.10493271 0.052380517 -0.035872202 -0.051916696
000300 b5 2a 49 3d 97 28 98 bd 5a 12 bd bd 11 3d 93 3d
       0.049112994 -0.07429617 -0.09232016 0.07189382
000310 d4 0d 7e bd 11 bb bb 3d b4 ff 0e 3c 50 8f 68 bd
       -0.062024906 0.091665395 0.008727957 -0.0567773
000320 34 c4 a3 bd b0 e0 30 3d 7d 34 06 bd 1f 97 8a 3d
       -0.07996407 0.04318303 -0.0327649 0.06767105
000330 5e 24 60 3e 04 97 a0 bc cc 18 1e bc 00 f9 1d 3c
       0.21888873 -0.01960326 -0.009649467 0.009641886
000340 bc 78 aa 3c a3 81 3c 3d 75 8c 99 bc 26 a7 81 bd
       0.020809524 0.04602207 -0.018743733 -0.06330709
000350 f2 f1 f4 3b 39 e8 e5 bd 2d b2 53 bd e4 af 2c 3d
       0.007475131 -0.112259336 -0.051683594 0.04215993
000360 0b 2a a9 bd 17 cb 31 bd 98 d3 a2 3c 5b a6 3d be
       -0.08259972 -0.043406572 0.019876286 -0.18520491
000370 58 92 99 bd b5 07 0f bd ff ae ca 3d 8d 0d 7e bd
       -0.07498616 -0.03491946 0.09896659 -0.06202464
000380 d0 7c 01 be d4 ce 68 3d a4 78 92 bc 40 62 90 3d
       -0.12645268 0.05683787 -0.017879792 0.0704999
000390 73 e5 d5 3d d9 cb da 3d 6f 36 73 3d 0f 7b de 3d
       0.104441546 0.10683412 0.059378084 0.10863315
0003a0 8b be a0 bd d8 1f b4 bd 86 e8 14 3e 3e 2b 44 3c
       -0.07848843 -0.08795136 0.14541826 0.0119732
0003b0 89 1f 14 be 63 c5 92 bd ae c2 9b bd b5 0d 16 bd
       -0.14465155 -0.07166555 -0.076054916 -0.036634166
0003c0 1a 57 b3 3d 08 08 d7 3d e8 dd bd bd 47 7d 96 bd
       0.08756848 0.10499579 -0.09270841 -0.073481135
0003d0 99 0f 07 3c 18 32 c4 3d a7 65 50 3d e2 72 66 3e
       0.008243465 0.09579867 0.050878193 0.22504762
0003e0 d8 cd 83 bd f5 e4 0c be 5a 9a de bc c4 9f a4 3c
       -0.06435746 -0.13759215 -0.02717321 0.020095713
0003f0 dc 9e 00 3e b6 5b 91 3d 1d 3a 33 3c 9c ad b4 bc
       0.125606 0.070975706 0.010939148 -0.02205544

layer2_input.weight f4 [256, 3]
000000 5d de 59 bd 87 15 2b 3d f1 bf 93 3d 0a fe 90 bd
       -0.053190578 0.041768577 0.07214344 -0.07079704
000010 c5 b6 a9 bb 35 9b df bd a3 42 6d bd 38 de ca bd
       -0.0051792585 -0.10918275 -0.057924878 -0.09905666
000020 a7 2a 92 bb 98 c8 94 bd da 17 6b bd bb fe 92 bd
       -0.004460651 -0.07264823 -0.057395793 -0.07177492
000030 f0 cf 82 be 04 9f 50 3c 66 7c 89 bc 14 93 da 3d
       -0.2554927 0.012733225 -0.01678295 0.10672584
000040 ba 3a 73 bd c4 7e aa bd 0b dd 24 3e ed 99 99 3d
       -0.059382178 -0.0832496 0.16099946 0.07500062
000050 72 44 ac bb a2 b0 9d 3d d1 5c 9a bd ab 44 56 3d
       -0.0052571828 0.07699706 -0.075372346 0.05231158
000060 3f 55 9f bd 1b a7 cd bc cb ab b9 bc 06 4d 8d 3e
       -0.07779931 -0.025104096 -0.022664925 0.27597827
000070 76 6f 48 3c 01 f0 cd 39 8b 83 1b 3e c1 a0 33 3e
       0.012233606 0.00039279464 0.15186898 0.17541791
000080 35 54 d7 39 fd 72 55 be 0b 15 44 ba 84 f4 d9 3d
       0.00041070735 -0.20844646 -0.0007479942 0.10642341
000090 a2 83 ae bc 47 86 72 3b 81 e0 df 3d 7e b2 80 bd
       -0.021303002 0.0037006305 0.109314926 -0.06284045
0000a0 dc 7f c4 be 39 cc c3 be d2 c2 03 be 39 2d 0d be
       -0.383788 -0.38241747 -0.12867287 -0.13786782
0000b0 aa c7 59 be 85 54 52 3e f6 5b ea bc 2c 69 44 bd
       -0.21267572 0.20540054 -0.028608304 -0.047951862
0000c0 b7 b2 6f b9 15 8c bf 3d 8d 00 1c 3d c3 61 eb bd
       -0.00022859393 0.093528904 0.038086463 -0.11493256
0000d0 e9 e5 07 3d e8 5c ac bc 59 0c 59 be 59 80 ef bd
       0.033178244 -0.021040395 -0.21196117 -0.11694402
0000e0 85 33 d3 bc 4a 65 21 3e 08 af 95 3d 1c 44 40 3e
       -0.025781402 0.15761295 0.07308775 0.18775982
0000f0 83 4a 2c bd 3f fe a4 3d 12 88 80 bd 67 ee 36 be
       -0.042063247 0.08056306 -0.06275953 -0.17864381
000100 26 da 18 3e 1f cd 69 3e c0 72 1d 3c d4 e7 4a 3e
       0.14926967 0.22832154 0.009609878 0.19814998
000110 d8 3c d9 3d 2e c2 d8 3d 39 83 a3 bd f2 95 c0 bd
       0.10607308 0.10583912 -0.07984013 -0.094036
000120 12 ba e2 bc 03 d5 0a be 2a fc 5e be be 54 36 3e
       -0.027676616 -0.1355782 -0.2177588 0.17805764
000130 0d a0 88 3d de 7f 37 3d a5 b3 13 3e d8 ab 95 3d
       0.06671152 0.044799678 0.14423998 0.07308167
000140 2b 43 cc 3d bb 83 3b bd dc 8e ca 3b 9e 7d da bc
       0.09973749 -0.045779925 0.006181581 -0.026671227
000150 2d fd 91 3d 12 a5 0a be 82 f2 00 be ee 0b 55 be
       0.071283676 -0.13539532 -0.1259251 -0.20805332
000160 c3 17 53 3d 33 a4 3f 3c 82 7a 38 be 7c 7e 71 be
       0.051536333 0.011696863 -0.18015483 -0.23583406
000170 da 2b 63 be b2 85 01 bd 4a 12 ab 3d 84 e2 ea bb
       -0.22184697 -0.031621642 0.08353098 -0.007168116
000180 f7 e7 06 be f7 10 ba bd 70 d1 55 be 01 93 05 be
       -0.13174425 -0.09085267 -0.20880675 -0.13044359
000190 36 72 96 bd 56 86 1c be 51 7e d2 bd 0e d4 b3 bd
       -0.07346003 -0.1528562 -0.10277999 -0.087806806
0001a0 b0 c5 66 bd df 9f 65 3e a0 3f 9d 3c cf b2 bd 3c
       -0.056340873 0.22424267 0.019195378 0.023156552
0001b0 dc 66 76 be f7 49 10 be b0 02 a0 bd 6a c1 64 3e
       -0.24062675 -0.14090715 -0.078130126 0.22339407
0001c0 f7 32 23 bd 2c 5c 55 3d 2d e7 81 bd d6 c2 b4 bd
       -0.039843526 0.052089855 -0.063429214 -0.088262245
0001d0 80 85 39 be a9 d8 d2 bc 34 dd 27 be 53 04 12 be
       -0.18117332 -0.025738077 -0.16392976 -0.14259462
0001e0 13 92 08 be fa e0 6e bd 00 88 36 bc 34 02 54 3e
       -0.13336973 -0.058320023 -0.011140823 0.20703965
0001f0 20 73 15 3e 78 b9 6c 3c c8 ad 70 3e 90 e0 c3 3e
       0.14594698 0.014448516 0.23503792 0.38257265
000200 4c af ba 3e 76 11 6c be 45 0e 9b be 81 0a a9 be
       0.36461866 -0.23053536 -0.30284324 -0.33015826
000210 75 27 50 be 9b 0f 43 3c f1 6f 47 bd 04 c5 39 bd
       -0.20327552 0.011905576 -0.04869074 -0.045353904
000220 d7 98 96 3d 9e af 87 3d f9 08 a8 be 99 76 1e bd
       0.07353371 0.06625293 -0.32819346 -0.038687322
000230 b5 61 14 be fa 89 1e 3e d9 99 9f bb d5 6e 9e 3d
       -0.14490397 0.15482321 -0.004870635 0.07735983
000240 e4 85 06 be dc 4b 50 be db 98 d5 bd 3b bc 19 3e
       -0.13137013 -0.20341438 -0.104295455 0.1501321
000250 60 50 b1 bd 17 e1 47 bd 64 b3 d0 bd aa 25 25 3e
       -0.086579084 -0.048798647 -0.10190466 0.16127649
000260 76 93 47 3e 85 e0 da bc 5e 7c a8 3c 77 ff ef 3d
       0.19489846 -0.026718387 0.020567115 0.11718648
000270 dd 26 4a 3e 9c cb 13 3d da 6f 55 3d 38 c6 b6 bd
       0.19741388 0.03608285 0.052108623 -0.08924526
000280 22 83 34 3e a0 17 82 3e c4 d3 34 3d 0a 87 3d bd
       0.17628148 0.2540865 0.044147268 -0.04627136
000290 c4 ad 94 bd af b3 a0 3d 01 43 17 3e 52 f7 f6 3d
       -0.07259706 0.07846772 0.14771654 0.12058891
0002a0 a2 58 8a bd 7e 0f 9b 3d 08 1f 37 3d e9 50 82 bc
       -0.067551866 0.07571314 0.044707328 -0.015907722
0002b0 b9 df 2c 3e 4a a5 3c 3e 7e 34 54 bd ab 68 5b be
       0.16882218 0.18422428 -0.051807873 -0.21426646
0002c0 76 c5 f6 bd da ba 5f bd e0 58 f3 bd 7a f2 89 bd
       -0.120493814 -0.054621555 -0.11882186 -0.06735702
0002d0 4c 16 a2 3d 80 53 0f 3e 58 af 00 3e ce 90 d4 bb
       0.07914409 0.13996696 0.12566888 -0.0064869886
0002e0 5d c0 a5 39 6e 36 98 3c 7a 08 5b be ad eb ed bd
       0.00031614574 0.018580642 -0.21389952 -0.11617217
0002f0 5c 6d a2 bd 27 50 72 bd cc b7 a2 bd 0b 02 dd bd
       -0.07931015 -0.05915847 -0.07945213 -0.10791405
000300 71 04 3f 3e 99 72 9a 3d c3 db e9 bc b8 ba 7f 3d
       0.18654038 0.07541389 -0.028547173 0.06243393
000310 a6 68 f4 bc 5e a9 f3 bd ab 4e 2d bc e4 3b 89 be
       -0.029835057 -0.118975386 -0.010577838 -0.26803505
000320 84 4c 24 be b3 df af bc f3 22 87 bc 97 04 06 bc
       -0.16044813 -0.021468973 -0.016496157 -0.008179805
000330 a5 4d 0c be d2 29 7e be dd 27 61 be 2e 9e 13 be
       -0.13701494 -0.2482064 -0.21987863 -0.1441581
000340 bf 9a 59 3c 24 32 17 3d 89 a3 e0 3d 69 76 37 bd
       0.013281523 0.036913052 0.10968692 -0.04479066
000350 b5 2d 81 bd cb b9 23 be e3 43 34 3c 95 98 bf 3d
       -0.06307546 -0.15988843 0.011002514 0.093552746
000360 30 5c 0b be 07 0a 14 bc 9b 9d 08 bd 86 88 f9 3c
       -0.13609385 -0.009035594 -0.03335343 0.030460607
000370 d1 ed db bd d5 aa 9b 3d 33 40 bd 3c 6c 89 4e be
       -0.10738719 0.07600943 0.023101902 -0.2016961
000380 95 3b bb bd 0c 59 1b 3e c4 d7 4c bd 2d 4d 89 bd
       -0.09142224 0.15170687 -0.050010458 -0.06704173
000390 f7 2e 14 bd 48 6b 59 bc 5f 5e 23 bd d8 a3 6f bd
       -0.0361776 -0.013270207 -0.03988492 -0.058505863
0003a0 d1 c3 6e bb af 52 f9 bc b1 cc 0f 3d 87 8f 79 3d
       -0.0036432634 -0.030434934 0.03510732 0.060927894
0003b0 4c 87 b4 bc 0e 34 19 be 1d 67 1d 3e 0d 9a a2 bc
       -0.02203717 -0.14961264 0.15371366 -0.019848848
0003c0 b0 c0 82 3e 14 3f 05 bd cf 55 b0 bc 6b c0 88 be
       0.25537634 -0.03253086 -0.021525292 -0.26709303
0003d0 b3 e1 75 3d bc ba cf 3d 22 92 78 be dc c6 bc bd
       0.060029697 0.10143039 -0.24274495 -0.09217617
0003e0 41 74 e2 3c 4a 0b ab 3e 29 02 3f 3d 61 93 e8 bd
       0.027643325 0.3340705 0.04663292 -0.11356235
0003f0 44 d2 08 be fe a8 9a 3c 7f 49 09 3b d6 3c 07 bd
       -0.1336146 0.01887941 0.0020948348 -0.033017002

layer2_input.bias f4 [256]
000000 81 b1 a3 3b 5e bb 97 3e 4b d1 0e 3e 6b 6c 0d 3e
       0.0049955253 0.29635137 0.13947026 0.1381089
000010 dc 58 ec 3e 01 53 e0 bd e1 f8 c9 be fc 07 b7 bd
       0.46161544 -0.10953332 -0.39447692 -0.0893707
000020 71 da 2e 3e ea aa c4 be d7 a8 82 be 0f ab 4c 3e
       0.17075516 -0.38411647 -0.2551944 0.19987129
000030 f4 90 89 3d 41 83 1e bf 69 f8 eb 3e d8 bd c1 bd
       0.06717101 -0.6191903 0.4608796 -0.09460038
000040 02 30 e7 bb 30 ae 0f 3d 15 9b 74 3e 18 7c be be
       -0.0070552835 0.035078228 0.23887284 -0.3720405
000050 9b 7f ff 3d 81 9e f8 be 82 a1 9c be 06 a8 1d bb
       0.12475511 -0.4855843 -0.3059197 -0.0024056449
000060 e9 86 ae 3e df 48 80 bd 2c 12 2c 3d f2 83 01 3d
       0.34087303 -0.06263899 0.042009518 0.031619973
000070 d6 42 f7 3d 3a ef 59 3e 70 65 f5 3e 09 63 08 be
       0.12073295 0.21282664 0.47928953 -0.13319029
000080 36 9b cc 3e 45 02 eb 3d 30 ba 9e 3e 9b 29 96 bc
       0.39962167 0.11475042 0.31001425 -0.018330386
000090 95 b7 fb 3e 8a 9b d5 be 57 73 85 3e 64 ae a1 3e
       0.491635 -0.4172023 0.2606456 0.31578362
0000a0 40 4d c1 3e 80 cf d7 be 5c 26 35 3f 03 c5 40 3e
       0.3775425 -0.42150497 0.70761657 0.18825154
0000b0 42 a5 e6 3e 17 5e 81 bc 2b c0 e4 3e 90 97 f0 bd
       0.45047957 -0.015791936 0.44677863 -0.11747658
0000c0 dc d6 a9 3e df b9 9e bd 9d 62 db be 43 56 62 be
       0.33171737 -0.07750296 -0.42848673 -0.22103219
0000d0 96 6a 63 be 2a 59 4b be 3f 02 e7 3d ff 59 e3 be
       -0.22208628 -0.19858232 0.11279725 -0.444046
0000e0 76 d6 ed 3d 37 23 c4 be cc 7b f7 3e 39 4c 89 3e
       0.11613171 -0.38308117 0.48336637 0.26815966
0000f0 99 d0 c5 be c6 85 3d 3e cd 07 73 3e 83 92 dd 3e
       -0.3863571 0.18508062 0.23733445 0.43275842
000100 9e 5e 91 be 7d 7d 8b bd 4d ad ff 3e 02 03 9e bd
       -0.283925 -0.06811044 0.49936906 -0.077154174
000110 f8 6f 04 3f 5d 2c 13 be 72 41 91 3d 6d 7e 8e bd
       0.5173335 -0.14372392 0.07092561 -0.069577076
000120 c3 95 e2 3d 50 28 b3 3e d6 9f 6d 3e 20 7c 1a 3d
       0.11063721 0.34991693 0.23205504 0.03771603
000130 23 47 13 3e 2e 23 b9 3e dc e4 8c be a2 ce a5 bb
       0.14382605 0.36159652 -0.27518356 -0.005060033
000140 53 6d a6 be 75 f5 a6 3e 90 4e c6 3e a4 ba 17 be
       -0.32505283 0.32609144 0.38731813 -0.14817291
000150 df 97 9a 3e 84 c7 5e be cd e8 46 3e 29 47 12 bc
       0.30193993 -0.21755797 0.19424744 -0.008928099
000160 c1 b6 04 be e1 5f df bd c6 df 9f 3e e7 71 24 be
       -0.1296034 -0.10906959 0.31225413 -0.16059075
000170 68 c0 77 be a9 1e 1f be da a9 b2 3e 43 00 6c 3e
       -0.24194491 -0.1553904 0.3489521 0.23046975
000180 db fa be bd 44 3f 16 be f4 f4 c5 bc 9f 0e 98 be
       -0.09325191 -0.14672571 -0.024164654 -0.29698655
000190 01 94 e4 3e b0 00 bc 3e 3a 01 a4 3e 07 e7 28 be
       0.44644168 0.36719275 0.32032186 -0.1649438
0001a0 be e5 b9 be 41 f0 df 3e 23 ea 80 3e 14 53 e8 bd
       -0.36308092 0.43737987 0.25178632 -0.11343971
0001b0 a5 8b 6c 3e a9 90 ab be 1d 4e a9 be 4f a9 bb 3c
       0.23100145 -0.33508804 -0.33067408 0.022907881
0001c0 7f 54 00 bf ae 01 b0 be 32 56 1a be f9 ef 82 3e
       -0.5012893 -0.34376281 -0.15071943 0.2557371
0001d0 98 cc dd 3e b7 fc 88 be 6d 8d c3 be 6c 80 97 3e
       0.43320155 -0.26755306 -0.38193837 0.29590166
0001e0 00 4d c0 be bc e7 9b be bf 4d 2f bf d5 ec ea be
       -0.37558746 -0.30450237 -0.68478006 -0.45883814
0001f0 a6 c5 d8 be 51 4f f3 3e f5 7b 82 be a8 57 cc be
       -0.42338294 0.4752145 -0.25485197 -0.39910626
000200 a3 9e 34 be 00 7c 83 3e 54 7d b5 be 37 2b 60 3d
       -0.1763864 0.25680542 -0.3544718 0.054728713
000210 6d 5f fd 3e b9 fc a7 be a8 ff 88 be 09 7e 3d bc
       0.49486867 -0.3281 -0.2675755 -0.011565694
000220 f4 41 ac be 5b 04 42 bd 26 d2 aa 3e 8e 42 42 3e
       -0.33644068 -0.047367435 0.33363456 0.18970701
000230 2a 74 c3 bd 41 74 d4 be 8e 33 dc be 36 e2 b0 be
       -0.09543641 -0.41494945 -0.43008083 -0.34547585
000240 89 a2 ed 3e 19 e0 ad 3e 8d ea ab 3d 91 86 dc be
       0.46413067 0.33960035 0.083943464 -0.43071416
000250 18 33 20 be 6b b9 4f bd 0b 0f aa be 21 10 d3 be
       -0.1564449 -0.050713938 -0.33214602 -0.41223243
000260 1d 05 9c be d3 71 d6 3d b4 6f 6a 3d 1a 41 04 3f
       -0.3047265 0.10470929 0.057235435 0.5166184
000270 ac 51 f7 be 74 44 e5 3e 2d 38 df bd 6a 46 a3 3a
       -0.48304498 0.44778788 -0.108993866 0.0012456898
000280 bc ef 01 bf da 3d 87 3d f2 9b 70 3e 19 7c 96 be
       -0.5075643 0.06603594 0.23496988 -0.29391554
000290 a4 f4 e3 3d f7 50 d7 3e 2e f3 cb 3e f9 46 be be
       0.11130646 0.4205396 0.3983397 -0.37163523
0002a0 c6 78 f0 be a9 29 72 be 44 f9 c3 3e 52 d3 91 3e
       -0.46967143 -0.23648705 0.38276112 0.28481537
0002b0 87 66 b7 3e be 49 6f 3e ca 58 b1 3d b3 0c ef be
       0.3582041 0.23367974 0.08659513 -0.46689376
0002c0 b7 3f b0 be 84 1d 16 3c e6 cf ea 3d a3 21 02 3f
       -0.3442361 0.0091623105 0.11465435 0.50832576
0002d0 31 8f bf be a0 86 6e bd 04 24 00 3f 6c 5d 04 3f
       -0.37413934 -0.058233857 0.50054955 0.5170505
0002e0 ea 14 11 bf f7 36 81 be 53 21 60 3e c2 5b 98 3e
       -0.5667254 -0.25237247 0.21887712 0.29757506
0002f0 29 f4 41 3e a0 80 14 be b4 15 c9 3d f8 94 ca 3e
       0.18940796 -0.14502192 0.09818593 0.3956678
000300 ed 82 1e 3d c5 dd ae 3e f4 e1 ac 3e 0a d7 00 bf
       0.03869908 0.34153572 0.3376614 -0.50328124
000310 a5 9f de bd 50 66 b3 3d 8e b1 08 3f 34 af a1 be
       -0.108702935 0.08759749 0.53395927 -0.31578982
000320 72 fe b7 3d 2b d1 ee be fb b6 ff 3e 0a 2b 05 bf
       0.089840785 -0.46643957 0.4994429 -0.520188
000330 50 b2 94 be 50 31 ee 3d 6c 54 38 3e a4 f1 9c bd
       -0.29042292 0.11630499 0.18000954 -0.07663277
000340 fd f2 79 3d cb f9 61 be 42 37 04 3f db 8f 1d 3e
       0.061022747 -0.22067945 0.51646817 0.15386908
000350 5c da 05 3d d8 d8 d7 3e 60 de a7 3e f0 b4 6e be
       0.032678947 0.42157626 0.32786846 -0.2331121
000360 dd db cb 3e 0a b7 19 3e 8c 19 3d 3e 49 10 a2 3e
       0.3981618 0.1501123 0.18466777 0.3165305
000370 72 c3 a6 3e 22 ba 0a bf 48 91 e0 3d b1 1e b3 3e
       0.32570988 -0.54190266 0.1096521 0.34984353
000380 c6 8f d8 3e c1 76 07 3f 07 0f 05 bf a7 d2 8b be
       0.4229719 0.5291558 -0.51976055 -0.27309152
000390 73 78 17 be 2f 6c 5c 3e 3c c4 9a be 9c a1 98 bd
       -0.14792041 0.21525644 -0.3022784 -0.074526995
0003a0 80 22 14 be d1 d6 d6 3c 07 95 78 be 45 43 09 be
       -0.14466286 0.02622548 -0.242756 -0.13404568
0003b0 08 51 16 3e b5 22 53 bd 8b aa a1 bd 75 98 99 3e
       0.14679348 -0.05154677 -0.078938566 0.29999128
0003c0 0f 66 da be 8c 4d cd be f8 4c 29 be 2d e5 a1 3e
       -0.4265599 -0.40098226 -0.16533267 0.3162016
0003d0 5e ed d2 be 75 6c b9 be 86 e6 ac be ef 5e 7f be
       -0.41196722 -0.3621556 -0.33769625 -0.24938558
0003e0 37 76 2e be f6 82 e8 3e b0 3b a5 be 25 5d 2a 3d
       -0.17037283 0.45412415 -0.322721 0.041592736
0003f0 06 90 b9 be 8a c0 04 bd 14 c6 77 be 45 cd 8f 3e
       -0.36242694 -0.032410182 -0.24196655 0.28086296

layer3.weight f4 [256, 256]
000000 81 64 90 3d bf c2 58 3c 5c 49 cb bc cf c3 14 bd
       0.070504196 0.013230025 -0.024815254 -0.03631955
000010 e8 7e 8d bc c2 14 35 bd ad eb 0f bb f7 ee 86 3d
       -0.017272428 -0.04420925 -0.0021960542 0.06588548
000020 72 c6 c1 3c 20 10 c6 3d 68 66 3b bd d3 46 6e 3d
       0.023654196 0.09671044 -0.04575196 0.058173012
000030 45 fa d3 3c 10 f0 81 be ed 14 b2 3d ea 8c 98 3d
       0.025876174 -0.25378466 0.086953975 0.07448752
000040 f3 a3 a7 bd b4 7a 15 be 30 69 8e bb de b3 f3 3d
       -0.08185568 -0.14597589 -0.0043460354 0.11899541
000050 ef 27 a8 bc 58 2f 23 3e 6e ce b9 ba c8 3b 71 bd
       -0.020526854 0.15936029 -0.0014175901 -0.058894902
000060 1c f6 14 be 72 cd 97 3d 2c 2a 47 3e 28 1f 2b 3d
       -0.14547008 0.074122325 0.19449681 0.04177776
000070 40 81 a3 3d 8e 63 29 bd 35 74 b9 bd 6a 2c 5a bd
       0.07983637 -0.04135471 -0.09055368 -0.053265013
000080 9e c3 c2 3d 47 b6 fd bd 97 75 7d 3d 33 45 59 3e
       0.09509967 -0.12388282 0.06187972 0.21217804
000090 a8 b5 b7 bc 10 26 f3 3d 70 d7 c6 bd 7b 10 b2 3b
       -0.022425488 0.11872494 -0.0970906 0.0054340935
0000a0 0b 8b a1 3d 89 83 f2 3d 0f c2 b6 3e bc db 1d be
       0.078878485 0.118414946 0.3569493 -0.15415853
0000b0 df 96 69 bd 77 69 84 bd 7d f8 8d 3d b2 f1 29 be
       -0.057028648 -0.06465428 0.06932161 -0.16596106
0000c0 7f 40 79 bd e3 f5 6e bc 60 4e e3 3c 1d 24 dd 3c
       -0.060852524 -0.014584991 0.027747333 0.02699476
0000d0 89 d2 47 3e 68 3a 26 be e8 83 97 3d 16 ea ee 3c
       0.19513907 -0.16233218 0.07398206 0.029164355
0000e0 71 46 93 3d 08 71 06 3e 66 8d bc bd a2 59 ce 3c
       0.0719117 0.13129056 -0.09206657 0.025189225
0000f0 18 4b d7 bb c3 b5 c3 3d e1 b6 07 be 37 c6 ca bd
       -0.006570231 0.09556153 -0.13253357 -0.09901088
000100 ca 33 39 b8 4f 76 aa bb de ec af bc e4 7c 1a bd
       -4.415567e-05 -0.0052020918 -0.021475252 -0.03771676
000110 c4 82 0a 3d 37 6a 0d 3d 0a d1 b5 3c 37 ac d7 bd
       0.033816114 0.034525122 0.022194404 -0.10530894
000120 46 e6 df 3b 0f bb fc bd 9f 4a 08 be 54 91 4b bc
       0.0068328707 -0.12340366 -0.13309716 -0.012424786
000130 7c 3d ad bc 76 a4 a8 3c 47 42 24 be 2f 55 eb 3b
       -0.021147482 0.020586234 -0.16040908 0.0071817855
000140 b5 31 7e 3d 5d 2b 53 bc eb c4 a4 3d 00 05 b3 3c
       0.062059123 -0.012888757 0.080453716 0.02185297
000150 0b 38 aa 3d 5c 71 ad 3d 8c 66 87 bc 5f 28 29 be
       0.083114706 0.08468887 -0.01652839 -0.16519307
000160 37 81 a9 bd 06 84 92 3b 2a 7d 55 3d ef a7 ae bc
       -0.08276599 0.004471305 0.05212132 -0.021320311
000170 a3 61 6c 3d 69 10 c3 bb 31 8e aa 3b 22 ea 22 bd
       0.0577103 -0.005952884 0.005204939 -0.039774068
000180 84 16 f7 3d 36 b1 83 3d eb b6 12 be af 56 b0 3d
       0.120648414 0.06430285 -0.1432759 0.086102836
000190 0a 5a 05 3b 6a 62 b8 3d eb 25 95 bd f8 f6 b2 3d
       0.0020347857 0.09003146 -0.07282623 0.08738512
0001a0 f8 cf 68 3d c8 8f c3 bc cf 60 27 3e dd 09 61 bc
       0.05683896 -0.023872271 0.16345523 -0.013735262
0001b0 a2 80 9d 3d f9 44 49 3d 50 6d b3 bc dc e5 bd bd
       0.076905504 0.049138043 -0.02190271 -0.09272358
0001c0 41 a6 10 bb cf eb f4 3d ee 91 c7 3d 5c e7 1d 3c
       -0.0022071751 0.119590394 0.09744631 0.00963768
0001d0 f0 66 1a be 5e 35 2a bd c8 e8 82 bd e8 e5 10 bd
       -0.1507833 -0.0415548 -0.06392056 -0.035375506
0001e0 30 76 30 bd d3 56 42 be 04 07 bd bc a8 67 a8 3d
       -0.043081462 -0.18978433 -0.023074634 0.08222896
0001f0 de 45 f7 bd 83 fd c8 bd b9 9d 3e 3d 68 c7 78 bd
       -0.12073873 -0.098139785 0.046537135 -0.060737044
000200 c4 90 1f bd ff 2e 0e 3e 41 0e aa 3d df 58 cd 3d
       -0.03895642 0.13885115 0.083035 0.100267164
000210 ce b5 40 3e 56 9d 34 be 7f dc 20 be ee 9f 14 bd
       0.18819353 -0.17638144 -0.15709113 -0.036285333
000220 0c ed 84 bd 11 0b 90 bd 26 55 01 be da 25 7a bd
       -0.064905256 -0.07033361 -0.12630138 -0.061071254
000230 27 ff 61 3d b4 08 b9 ba bd a7 f9 3c c0 81 d3 3d
       0.055174973 -0.0014116974 0.030475492 0.10327482
000240 99 97 51 3e 94 e8 8e bd d4 a5 87 3d 9f 93 d5 3d
       0.20467986 -0.069779545 0.06623426 0.10428547
000250 4e b3 c6 bd d7 cf 65 3d 38 48 7b 3d d6 b0 5e bc
       -0.097021684 0.056106415 0.06134817 -0.013591966
000260 2c 61 86 bd 9b f9 a7 3d dc 6c d3 3b 02 61 69 3d
       -0.06561503 0.08201905 0.006452186 0.05697728
000270 d4 14 8a 3d ee 66 88 bd a2 d7 3d 3e 58 88 f1 bc
       0.06742254 -0.06660257 0.18539289 -0.02948396
000280 2e 1f b5 bb 7b 53 51 3d c3 8b 33 bd 7e a2 b0 bb
       -0.0055273985 0.051105004 -0.04383446 -0.0053904643
000290 a5 65 02 3e 4d 56 97 3d 71 33 67 3e 68 c9 4a 3d
       0.12734087 0.073895074 0.22578217 0.049508482
0002a0 1e f5 44 3d fa 81 c5 bd d9 4b a4 bd 34 69 1a 3c
       0.048085324 -0.09643932 -0.08022279 0.009424496
0002b0 f8 f2 c2 bb 50 6c 4e 3d 94 3d a9 3d 07 02 bf bd
       -0.0059493743 0.050396264 0.08263698 -0.093265586
0002c0 8c b0 83 bc fc ba fb 3d b3 45 3d 3e 90 2a 8f 3e
       -0.016075395 0.12291524 0.1848362 0.2796216
0002d0 71 07 dc 3d 9f 8b 59 bd b3 8f 54 3d f6 2a da bd
       0.10743607 -0.05311167 0.051894855 -0.106527254
0002e0 93 48 3a be 56 93 8a bd 8c 79 73 bd 33 bd ac bb
       -0.18191747 -0.06766383 -0.059442088 -0.0052715777
0002f0 41 fc f9 bc b6 f6 9e bc 43 71 fe bc c7 81 df 3d
       -0.030515792 -0.01940475 -0.031059867 0.10913425
000300 1a c7 0e 3e f8 06 c4 bc dc 80 93 bb ad 1d 8d 3c
       0.13943139 -0.023929104 -0.004501445 0.017226065
000310 85 f1 cf bd 90 13 06 3d 20 6b 17 3b e9 48 8a bd
       -0.10153488 0.0327335 0.0023104623 -0.06752188
000320 0a 2b 71 bd 97 a5 23 3d f1 c9 55 bc 05 4d cf 3c
       -0.058878936 0.03995284 -0.013048635 0.02530528
000330 b4 b7 86 bd 03 7d 76 3d c6 1f 86 3d 1e af ca bd
       -0.06578007 0.060177814 0.06549029 -0.09896682
000340 dc 72 23 3e 15 c1 67 bd 60 97 2e 3c 79 73 8b bd
       0.15961784 -0.05658062 0.010656208 -0.06809134
000350 0e ce c7 bd 86 08 be 3d 5d cf ee bd f7 8f e8 3c
       -0.09756099 0.092789695 -0.11660645 0.02838896
000360 6b d0 28 be 96 77 25 3d e4 81 91 bc ea bd f5 bd
       -0.16485755 0.04039725 -0.017762132 -0.11999114
000370 04 24 43 3d a4 e0 84 bb 08 b0 7d bd f0 2b 3f bc
       0.04764177 -0.0040550996 -0.061935455 -0.01166819
000380 54 22 56 3d 78 3b df 3d 70 98 9d 3c 26 86 ad 3c
       0.05227883 0.10900015 0.019237727 0.021182131
000390 0b 71 ce bd 71 29 8b bb c7 8d 12 be f1 aa 47 bd
       -0.10080155 -0.0042468836 -0.14311896 -0.048747007
0003a0 82 f6 93 bd 7c 95 f3 3d cf 88 8a bd bd ca c5 3d
       -0.07224752 0.11893746 -0.067643754 0.0965781
0003b0 04 f1 ca bd 4b 6c 70 3d be 63 7b bd 6d 61 8f bd
       -0.09909251 0.058697026 -0.06137442 -0.07001004
0003c0 67 95 a3 3c a2 64 74 bd 31 c8 25 bc 30 09 0b 3d
       0.019968702 -0.059666283 -0.01011853 0.03394431
0003d0 20 76 0c bd e2 2e fb 3b 75 1c 69 3c 71 44 66 3d
       -0.03429234 0.007665501 0.014227976 0.056217615
0003e0 c1 ee 53 3b 3f 23 61 3d 5d 03 87 be 3c 5b 61 3c
       0.0032338353 0.054965254 -0.26369753 0.013754662
0003f0 33 5c 1d be 5e 02 84 bd 72 b4 05 3e 69 89 0d ba
       -0.15367202 -0.06445764 0.13057116 -0.0005399199
