models/BlackScholesBarenblatt2DCorr.pth (torch, 826671 bytes, 15 tensors)

layer1.weight f4 [256, 3]
0.1319504 0.02815246 0.0023451492 0.14722407 0.014994663 -0.10744887 0.106703654 -0.04636912
0.13018109 0.018237159 0.14271088 -0.080522254 -0.13043714 0.21098204 -0.102936506 0.29759607
-0.09086985 0.16286743 -0.096402235 0.06007066 0.07627659 0.18848519 -0.075913526 0.011304189
0.024854168 0.061086122 -0.05126715 0.046983287 0.008752343 -0.013907393 -0.014343115 0.05581483
-0.14295618 -0.007412822 0.018220592 -0.013803197 0.08180549 -0.02474724 -0.082447395 0.052252248
0.059917465 0.133819 0.046425298 -0.0032074975 0.14502186 -0.037102286 -0.13182345 -0.038784884
-0.10126585 0.0054559037 -0.11159076 0.12925555 -0.06734033 0.04082537 0.061626807 -0.18126132
0.21655636 -0.15749052 0.05772731 0.044557348 -0.032237124 -0.014076644 0.072580196 -0.05027531
-0.19607525 0.058711745 -0.08059144 -0.05763784 0.09668658 0.040153027 0.044183295 0.040506467
-0.04758596 0.11658562 0.14893362 -0.1032123 -0.11008406 0.13843985 0.09674399 0.016962284
0.068285435 0.107268214 0.073227175 0.12724371 0.05027869 -0.028596388 -0.10115568 -0.120365456
0.014207132 -0.017781109 0.07937518 -0.07609859 0.09881531 0.09376464 -0.09970271 -0.11950012
-0.019563455 0.12686051 0.14848186 0.11608664 -0.00057849986 0.036843088 -0.19163306 -0.0005657042
-0.11068477 -0.028328724 -0.016377462 0.10487432 0.05100073 0.12033891 0.17554238 0.30732968
-0.021245645 -0.15637292 0.008001999 -0.102191396 -0.03236461 0.0011991011 -0.08030283 0.06597027
-0.09020901 -0.0019214139 0.1298086 0.016919617 -0.083014876 -0.13961266 0.19883086 0.14671561
-0.026045393 -0.17051888 0.03237849 0.12526488 -0.1587341 0.043788336 0.036395986 -0.11880816
-0.0106339045 -0.14477941 -0.07068821 -0.060692575 -0.006959743 0.043852977 0.044851396 0.11639523
-0.22471057 -0.10012611 0.03461353 0.039053738 -0.073458314 0.03889578 -0.110163875 0.07334745
0.10606653 -0.026414458 0.12043728 -0.16145301 -0.15322377 0.15214331 -0.18864536 0.14742027
-0.023002267 -0.12182846 0.012610465 0.10189504 0.089173704 0.069156095 0.03761789 -0.122949645
-0.22667286 0.10295639 0.1471341 -0.016112866 0.094535224 0.011186069 0.06303954 0.10561713
-0.14078146 0.07003499 -0.11483108 0.0974928 0.00043598303 0.10762347 0.011960637 -0.09073566
0.13292061 0.050198976 0.043149874 -0.17437734 0.06562462 -0.045060374 0.13628635 0.048237506
0.011206333 0.11565382 0.118394956 -0.09368414 0.12736769 -0.08731151 -0.14693552 -0.051905263
0.16094416 0.05543739 0.107855245 -0.016831677 -0.029038427 -0.020984894 0.08189069 0.119506374
-0.08966608 0.101303026 -0.14558165 0.11625044 -0.09951297 -0.10013305 -0.0126627125 0.027758695
0.09611017 -0.08655823 0.113982596 -0.15566565 0.039183296 0.008429533 0.24858794 0.07880945
-0.052538875 -0.21742271 0.0018071859 -0.057162024 0.1272648 0.1724046 -0.064071745 -0.001506254
-0.11656139 -0.0033581753 0.21541716 0.055666585 -0.020897223 0.14825895 0.011250916 0.08303153
-0.10891691 -0.055179626 -0.06305293 -0.10804494 -0.042163473 0.050460365 0.014598463 -0.062338483
0.023969403 0.061873768 -0.09394352 -0.04461375 -0.14995158 -0.0799653 -0.018826185 0.25459003
00000000: 011e 073e fd9f e63c 13b1 193b e8c1 163e
00000010: 2dac 753c 270e dcbd 7287 da3d 8ced 3dbd
00000020: 314e 053e 1866 953c cd22 123e dae8 a4bd
00000030: 5091 05be ad0b 583e 60d0 d2bd 835e 983e
00000040: f919 babd b8c6 263e 896e c5bd a70c 763d
00000050: e736 9c3d 4302 413e 8d78 9bbd 3535 393c
00000060: f89a cb3c 7135 7a3d 81fd 51bd 8c71 403d
00000070: fd65 0f3c d6db 63bc 62ff 6abc 179e 643d
00000080: 1b63 12be 42e7 f2bb 5a43 953c ce26 62bc
00000090: a389 a73d b9ba cabc 2eda a8bd 7406 563d
000000a0: 046c 753d d907 093e 7428 3e3d e134 52bb
000000b0: 9c80 143e 91f8 17bd bafc 06be e6dc 1ebd
000000c0: 7864 cfbd 70c7 b23b b289 e4bd 915b 043e
000000d0: bae9 89bd 8138 273d 646c 7c3d 919c 39be
000000e0: f3c0 5d3e 3245 21be 7973 6c3d c481 363d
000000f0: 130b 04bd b9a1 66bc eda4 943d 7ced 4dbd
00000100: f3c7 48be ba7b 703d 200d a5bd a815 6cbd
00000110: 9d03 c63d 8077 243d 8bf9 343d 1cea 253d
00000120: 7fe9 42bd 71c4 ee3d 0e82 183e f860 d3bd
00000130: c073 e1bd 2dc3 0d3e b721 c63d 7df4 8a3c
00000140: 3cd9 8b3d 70af db3d 21f8 953d 2d4c 023e
00000150: 07f1 4d3d f942 eabc b62a cfbd 2a82 f6bd
00000160: 08c5 683c b0a9 91bc 748f a23d 94d9 9bbd
00000170: ae5f ca3d ad07 c03d ef30 ccbd 7bbc f4bd
00000180: 8a43 a0bc b9e7 013e a10b 183e d5be ed3d
00000190: 78a6 17ba c7e8 163d 753b 44be c44b 14ba
000001a0: b2ae e2bd a411 e8bc 072a 86bc 59c8 d63d
000001b0: 24e6 503d 3f74 f63d 62c1 333e 515a 9d3e
000001c0: 590b aebc 3920 20be d11a 033c b949 d1bd
000001d0: c190 04bd 282b 9d3a cf75 a4bd 6c1b 873d
000001e0: 80bf b8bd f4d7 fbba 8cec 043e 029b 8a3c
000001f0: b403 aabd 9ff6 0ebe 519a 4b3e 9e3c 163e
00000200: 265d d5bc 809c 2ebe 4f9f 043d 7045 003e
00000210: 318b 22be 665b 333d f513 153d b151 f3bd
00000220: d439 2ebc 0e41 14be fbc4 90bd c798 78bd
00000230: 8e0e e4bb 2e9f 333d 19b6 373d 9f60 ee3d
00000240: 871a 66be eb0e cdbd ebc6 0d3d d0f6 1f3d
00000250: 5071 96bd 2e51 1f3d 999d e1bd 3037 963d
00000260: 6939 d93d 2263 d8bc d2a7 f63d f053 25be
00000270: b1e6 1cbe 75cb 1b3e 402c 41be 57f5 163e
00000280: 406f bcbc 3381 f9bd 209c 4e3c 59ae d03d
00000290: b4a0 b63d b6a1 8d3d 3715 1a3d 06cd fbbd
000002a0: ee1c 68be cdda d23d 52aa 163e 21ff 83bc
000002b0: af9b c13d c645 373c e01a 813d cb4d d83d
000002c0: 0429 10be 816e 8f3d 8f2c ebbd 4eaa c73d
000002d0: a794 e439 b269 dc3d 8cf6 433c 9ed3 b9bd
000002e0: 571c 083e 719d 4d3d ecbd 303d f98f 32be
000002f0: 3366 863d 3a91 38bd a68e 0b3e b194 453d
00000300: c49a 373c e9db ec3d 0e79 f23d 78dd bfbd
00000310: ad6c 023e 61d0 b2bd 4476 16be 9d9a 54bd
00000320: 8cce 243e 5112 633d 36e3 dc3d 96e2 89bc
00000330: ffe1 edbc 83e8 abbc 4eb6 a73d c2bf f43d
00000340: daa2 b7bd f677 cf3d 5b13 15be b614 ee3d
00000350: 75cd cbbd 8e12 cdbd 4477 4fbc 3466 e33c
00000360: 69d5 c43d 7145 b1bd b56f e93d d166 1fbe
00000370: aa7e 203d 061c 0a3c d68d 7e3e d966 a13d
00000380: 0133 57bd 0fa4 5ebe 19df ec3a ba22 6abd
00000390: b451 023e d58a 303e 0c38 83bd 7f6d c5ba
000003a0: bdb7 eebd d514 5cbb 5196 5c3e a502 643d
000003b0: a730 abbc 32d1 173e c355 383c 6f0c aa3d
000003c0: d40f dfbd 0804 62bd e521 81bd aa46 ddbd
000003d0: 9bb3 2cbd 87af 4e3d 642e 6f3c a356 7fbd
000003e0: 7b5b c43c 596f 7d3d 7665 c0bd e8bc 36bd
000003f0: e88c 19be d9c4 a3bd 5f39 9abc a059 823e

layer1.bias f4 [256]
-0.38324806 -0.4717127 -0.29008076 -0.19879952 -0.11949466 -0.41280335 0.1573514 -0.4718443
-0.102996595 0.037528314 -0.32859054 0.029458584 -0.41060662 -0.33448857 0.23625349 -0.3323016
-0.025700916 0.09428007 0.026770586 0.40613428 -0.27454227 0.36353388 0.5278769 -0.3788797
-0.44857246 -0.029658869 -0.23422241 -0.13614148 0.42435643 0.36558837 0.014919189 0.18876322
-0.14314508 -0.09730175 0.33426836 0.09317215 -0.5004982 -0.3457652 -0.037424576 0.41890007
-0.15517418 0.045884587 -0.51199573 0.51097816 0.36277443 0.119931385 0.4934789 -0.08916792
0.48255283 0.095400505 0.3309292 0.075434126 0.013363746 -0.5442664 0.2557177 0.048934832
0.14240865 0.117474124 0.2204733 0.15923002 -0.26206625 -0.0408209 0.11293447 -0.416611
-0.012345209 -0.23812014 0.47899002 0.42196274 -0.18989703 0.34513623 0.29828823 -0.4387387
0.06242161 -0.0021683397 -0.4452802 0.24755177 -0.555209 -0.18195945 -0.25232804 -0.24234603
0.2685367 0.1289241 0.09877295 0.20686333 0.08714303 -0.23409703 -0.34263617 -0.14373703
0.29248744 0.31044102 -0.023600856 0.23024504 0.5777094 0.32501504 0.2984438 -0.44581643
-0.042709876 0.33477628 -0.13157368 -0.016198512 -0.45347324 0.31620213 -0.13571447 -0.1870805
-0.13982399 -0.07381183 0.3599381 0.4281338 0.035120748 -0.17370884 -0.42739448 0.038764413
-0.15880005 0.4950881 0.35971105 0.10879472 -0.095452 -0.21361285 0.3812636 -0.46062645
-0.44901872 -0.40738168 -0.27100897 -0.2828513 0.24567726 0.17278878 0.29409334 -0.23595747
-0.30191326 -0.18697427 0.13150299 -0.4385651 0.40563363 -0.013353896 -0.020155082 -0.14054947
-0.020175086 -0.45103112 0.4152322 0.045693655 0.2276603 -0.43444493 -0.256681 0.33057135
0.48067522 0.11765349 0.27590877 0.47866216 0.47592852 -0.48245 0.46727905 0.08642733
0.5064195 0.16262102 0.35596192 -0.10452651 -0.19997238 0.16120014 -0.006514018 -0.5267504
0.27127743 -0.24851108 0.31518567 0.048023723 -0.021267189 -0.57634115 -0.48937395 0.3619083
-0.06359372 0.1248427 0.21801889 -0.335915 0.20465808 -0.36564714 -0.055235703 0.1492107
-0.1495727 0.22524229 0.47749275 0.3743391 -0.065985076 0.045555696 0.49667338 -0.33453026
0.25434104 0.40202767 -0.2622584 -0.026139405 -0.25612637 -0.1649626 0.3545815 0.35717732
-0.24643384 0.17563976 -0.1409793 0.26115474 0.21793512 -0.025613617 0.5169046 -0.0993929
-0.32065424 -0.17361468 0.47667018 0.004967029 0.3080583 0.41616625 -0.42721486 0.14873074
0.32508495 0.46302003 -0.48069268 -0.26943186 -0.4514985 0.3498089 0.43091047 -0.30710962
-0.25100452 0.26244086 -0.26592496 -0.38278246 0.4163098 0.18622208 0.4105494 0.028609697
-0.37705564 -0.27694544 -0.4016523 0.44024116 0.13904636 0.3705519 0.11974468 0.28995326
-0.08344595 0.3631744 -0.44253048 -0.36597082 -0.45131254 -0.24133848 0.42105862 0.28542346
0.06801429 0.41933304 0.018124968 -0.43721372 -0.34583536 -0.010842627 0.29692736 -0.48900443
-0.39078465 0.047578268 0.5231735 0.17225012 0.17407252 -0.18065672 -0.47842836 -0.1637626
00000000: 1739 c4be 5484 f1be 7785 94be 1a92 4bbe
00000010: 9eb9 f4bd f65a d3be ba20 213e 9395 f1be
00000020: e1ef d2bd 4ab7 193d 053d a8be 2153 f13c
00000030: 083b d2be 1642 abbe 6fec 713e 6f23 aabe
00000040: ba8a d2bc e915 c13d fd4d db3c d5f0 cf3e
00000050: ce90 8cbe 1d21 ba3e f122 073f 85fc c1be
00000060: 4aab e5be 28f7 f2bc 00d8 6fbe ac68 0bbe
00000070: 3f45 d93e 662e bb3e 9d6f 743c 254b 413e
00000080: a094 12be 2446 c7bd 3925 ab3e 0ad1 be3d
00000090: a620 00bf 2308 b1be 834a 19bd 127a d63e
000000a0: fbe5 1ebe 7af1 3b3d 2712 03bf 77cf 023f
000000b0: 92bd b93e 969e f53d 44a9 fc3e ac9d b6bd
000000c0: 2a11 f73e 5761 c33d 8d6f a93e 357d 9a3d
000000d0: 9df3 5a3c 0b55 0bbf 6eed 823e e46f 483d
000000e0: 93d3 113e 4696 f03d c1c3 613e 320d 233e
000000f0: 8c2d 86be d133 27bd 304a e73d 094e d5be
00000100: 8f43 4abc c4d5 73be 2e3e f53e 800b d83e
00000110: 5e74 42be b2b5 b03e 3cb9 983e 5ca2 e0be
00000120: cdad 7f3d b41a 0ebb c4fb e3be 367e 7d3e
00000130: 2d22 0ebf 9453 3abe 2431 81be 8f29 78be
00000140: a47d 893e ae04 043e 7949 ca3d fbd3 533e
00000150: 0b78 b23d 22b7 6fbe 026e afbe cd2f 13be
00000160: eac0 953e 20f2 9e3e 9556 c1bc 5bc5 6b3e
00000170: c3e4 133f 5f68 a63e a0cd 983e 0d42 e4be
00000180: 8df0 2ebd cc67 ab3e 40bb 06be beb2 84bc
00000190: a52d e8be 3fe5 a13e bcf8 0abe 0892 3fbe
000001a0: 052e 0fbe a82a 97bd cf49 b83e 5a34 db3e
000001b0: c6da 0f3d bbe0 31be 73d3 dabe 6fc7 1e3d
000001c0: 7b9c 22be 307c fd3e 0c2c b83e c4cf de3d
000001d0: 577c c3bd 54bd 5abe fc34 c33e 3bd7 ebbe
000001e0: c8e5 e5be 5594 d0be b0c1 8abe e3d1 90be
000001f0: d292 7b3e 8bef 303e 6793 963e d69e 71be
00000200: 6094 9abe 2f76 3fbe b8a8 063e 9b8b e0be
00000210: 36af cf3e 4dca 5abc 451c a5bc 33ec 0fbe
00000220: 3946 a5bc 8ded e6be 5199 d43e 4529 3b3d
00000230: c81f 693e 916f debe b16b 83be a640 a93e
00000240: 101b f63e 50f4 f03d ea43 8d3e 3513 f53e
00000250: e7ac f33e b003 f7be 333f ef3e d000 b13d
00000260: b5a4 013f 2086 263e a440 b63e ff11 d6bd
00000270: 8fc5 4cbe a611 253e 8b73 d5bb 1dd9 06bf
00000280: e0e4 8a3e b079 7ebe 0460 a13e 86b4 443d
00000290: 8738 aebc 188b 13bf 398f fabe 0b4c b93e
000002a0: 6d3d 82bd 88ad ff3d 5840 5f3e 0dfd abbe
000002b0: e391 513e 1a36 bbbe d53e 62bd b1ca 183e
000002c0: 9629 19be eaa5 663e ee79 f43e 60a9 bf3e
000002d0: 2f23 87bd 9c98 3a3d f94b fe3e 8d47 abbe
000002e0: fd38 823e 92d6 cd3e bc46 86be 4e22 d6bc
000002f0: ff22 83be f5eb 28be b58b b53e f2df b63e
00000300: 2759 7cbe e9da 333e e15c 10be 13b6 853e
00000310: 622a 5f3e a6d3 d1bc dc53 043f 818e cbbd
00000320: cb2c a4be 0cc8 31be 1d0e f43e 76c2 a23b
00000330: d1b9 9d3e be13 d53e e8bb dabe df4c 183e
00000340: 8971 a63e f610 ed3e 5a1d f6be f9f2 89be
00000350: d02a e7be 271a b33e 4ca0 dc3e 793d 9dbe
00000360: aa83 80be a65e 863e 5127 88be 10fc c3be
00000370: 8f26 d53e 00b1 3e3e 8833 d23e e25e ea3c
00000380: 700d c1be cbcb 8dbe 5fa5 cdbe 4a67 e13e
00000390: 2b62 0e3e fbb8 bd3e b33c f53d c174 943e
000003a0: b6e5 aabd fff1 b93e 5b93 e2be 8760 bbbe
000003b0: 7012 e7be 6f21 77be ff94 d73e 0623 923e
000003c0: 134b 8b3d d2b2 d63e d07a 943c 7ada dfbe
000003d0: 5511 b1be 46a5 31bc dd06 983e ca5e fabe
000003e0: ed14 c8be 6ee1 423d b3ee 053f 5662 303e
000003f0: 1140 323e 13fe 38be 90f4 f4be 62b1 27be

layer2.weight f4 [256, 256]
-0.042932637 0.09306484 -0.17522688 -0.08614639 -0.15614277 -0.046696473 -0.09392069 0.08015263
0.12927864 0.091583624 -0.032351647 0.0051334407 0.09197177 -0.060228586 0.10744541 0.067762576
-0.06504303 -0.028763533 0.06290152 0.13495526 -0.036281176 0.11920608 0.005579624 -0.095247105
0.063552104 -0.04849935 0.07521672 -0.09897991 0.056522068 0.03675416 -0.0033849229 -0.053385768
-0.12536488 -0.074417286 0.07499878 0.11629961 -0.014457667 -0.10447846 -0.08524142 0.064715184
0.0046170764 -0.0018377242 -0.07512737 -0.037630454 0.09835969 -0.058466054 -0.017474866 0.010699815
0.074147075 -0.10242113 -0.05313582 -0.049254507 0.038649518 -0.10624893 0.034054138 -0.17590114
-0.029234003 -0.069537535 -0.016115587 0.023955643 -0.12813132 -0.0049330276 0.15441906 -0.013248707
0.059325285 -0.05977208 0.038878143 0.14926952 0.033822153 0.09609309 0.09868704 -0.06588257
-0.021623477 -0.042137336 -0.08154195 -0.016201692 0.16964856 -0.02528938 -0.23100005 0.108508185
-0.11910366 0.10695602 -0.031412713 0.13826019 0.04736808 0.0059768297 0.031322267 0.14900841
0.06884662 0.065187044 0.07056851 0.05919915 0.04419713 0.16630495 0.13619684 -0.10843466
0.03740615 -0.03131908 -0.068909846 -0.04887251 0.0022047835 0.06376732 -0.04306097 0.098898135
-0.037589684 -0.06619115 -0.04005045 -0.08965753 -0.03414418 0.13931611 -0.015215554 0.073354535
-0.09646565 -0.039235603 -0.046301123 -0.0018663487 -0.04987076 0.015029691 -0.05928152 0.11198546
0.061244257 -0.04705095 0.037165307 0.09711278 0.04489787 0.020605369 -0.07898215 0.032446723
-0.107384935 -0.0090565905 -0.017900359 -0.035556514 0.012730745 0.02837864 -0.031773362 -0.09420603
0.03630486 0.09177618 0.091775864 -0.107760504 -0.07862731 -0.11510072 0.005757451 0.11012458
0.11388088 0.0516276 0.022215111 -0.09921312 0.094164416 0.0059264973 -0.08781128 -0.072684586
0.00043475142 -0.04296259 0.050492454 -0.100159414 -0.045225352 0.031687498 -0.06287185 -0.004060494
0.026952533 -0.06002961 -0.03306002 0.10149767 0.10807169 -0.09678701 0.080484256 -0.016364139
0.047792923 -0.09811589 0.096481666 -0.08947023 0.019020354 -0.10431317 0.0031875356 -0.11777658
-0.018411111 0.11470101 -0.0192194 0.104575 -0.024990942 -0.06262332 0.14712895 -0.12429857
0.016973516 -0.10088715 0.08299624 0.074711025 -0.09318618 0.15798722 -0.11894026 0.06312046
-0.0146467835 -0.09090593 -0.058352076 0.059355777 -0.024062349 -0.085267924 -0.11121224 0.13739145
0.027260056 -0.12260926 0.13541311 0.039834633 0.04361628 0.082798004 0.00484184 0.055113446
0.09063603 0.07367612 0.040944207 0.09298449 0.059644952 -0.09929618 -0.010309767 0.0104151685
-0.10204455 0.009870724 0.078462936 -0.07823726 0.019849967 0.088814884 -0.05757889 -0.13180931
0.01777882 0.035757598 -0.048139926 -0.025543164 0.107817195 -0.078850746 -0.044247616 -0.07126543
-0.024586344 -0.0022175666 -0.052251607 -0.020190803 -0.090142414 -0.060371686 0.09875078 -0.056118336
-0.10770477 0.08689806 -0.060066972 -0.08304361 -0.1313434 -0.014189105 -0.055289097 -0.0005631805
0.04286583 -0.08369564 -0.10595169 0.057796445 0.11581454 0.05052662 -0.06490391 -0.028581727
00000000: 22da 2fbd c798 be3d ad6e 33be 856d b0bd
00000010: e4e3 1fbe cd44 3fbd 7e59 c0bd 1027 a43d
00000020: 9f61 043e 3290 bb3d 2983 04bd 6c36 a83b
00000030: b25b bc3d 40b2 76bd 570c dc3d 1bc7 8a3d
00000040: 4835 85bd 80a1 ebbc 83d2 803d b631 0a3e
00000050: 929b 14bd 5122 f43d 47d5 b63b ea10 c3bd
00000060: 9b27 823d 41a7 46bd 390b 9a3d fbb5 cabd
00000070: af83 673d 888b 163d 95d5 5dbb 09ab 5abd
00000080: a75f 00be 1768 98bd f698 993d 7d2e ee3d
00000090: dadf 6cbc cef8 d5bd 0e93 aebd 6589 843d
000000a0: d84a 973b cbdf f0ba 61dc 99bd 6422 1abd
000000b0: ce70 c93d 1a7a 6fbd 7327 8fbc 474e 2f3c
000000c0: 6cda 973d 2bc2 d1bd f2a4 59bd 18bf 49bd
000000d0: f54e 1e3d 0a99 d9bd 5a7c 0b3d 6e1f 34be
000000e0: 267c efbc b269 8ebd d604 84bc a03e c43c
000000f0: db34 03be 3ca5 a1bb 0820 1e3e 1b11 59bc
00000100: 12ff 723d 92d3 74bd b03e 1f3d 1cda 183e
00000110: 1989 0a3d 74cc c43d 6e1c ca3d 71ed 86bd
00000120: b823 b1bc 3398 2cbd 77ff a6bd 69b9 84bc
00000130: 5ab8 2d3e ad2b cfbc 478b 6cbe 8a39 de3d
00000140: 9fec f3bd c20b db3d 9eaa 00bd 1494 0d3e
00000150: 0805 423d 48d9 c33b c74b 003d a995 183e
00000160: 75ff 8c3d c980 853d 3986 903d cf7a 723d
00000170: 0d08 353d d84b 2a3e 2f77 0b3e fe12 debd
00000180: 3137 193d 7048 00bd 9b20 8dbd 8b2e 48bd
00000190: 217e 103b 7198 823d b360 30bd 1b8b ca3d
000001a0: a4f7 19bd 3a8f 87bd f10b 24bd 5e9e b7bd
000001b0: c5da 0bbd e2a8 0e3e a94a 79bc e73a 963d
000001c0: c88f c5bd 83b5 20bd 3fa6 3dbd 45a0 f4ba
000001d0: 4845 4cbd 183f 763c 2ed1 72bd a258 e53d
000001e0: 42db 7a3d 7fb8 40bd a63a 183d 11e3 c63d
000001f0: d4e6 373d 97cc a83c 65c1 a1bd dbe6 043d
00000200: a2ec dbbd 1862 14bc c6a3 92bc b5a3 11bd
00000210: 9d94 503c 527a e83c c924 02bd 17ef c0bd
00000220: 68b4 143d 26f5 bb3d fcf4 bb3d 8ab1 dcbd
00000230: 5b07 a1bd edb9 ebbd 00a9 bc3b ff88 e13d
00000240: 613a e93d 7677 533d 77fc b53c 4030 cbbd
00000250: 46d9 c03d 1033 c23b 66d6 b3bd a8db 94bd
00000260: 59ef e339 8af9 2fbd 2dd1 4e3d 6120 cdbd
00000270: 383e 39bd c0ca 013d f5c2 80bd e40d 85bb
00000280: 8fcb dc3c 9ce1 75bd f269 07bd 03de cf3d
00000290: b154 dd3d 4538 c6bd eed4 a43d 160e 86bc
000002a0: 83c2 433d fcf0 c8bd 2e98 c53d 2b3c b7bd
000002b0: 93d0 9b3c 25a2 d5bd f9e5 503b d934 f1bd
000002c0: e6d2 96bc 5de8 ea3d 0172 9dbc 6b2b d63d
000002d0: ceb9 ccbc a840 80bd f9a8 163e 4090 febd
000002e0: 0b0c 8b3c ec9d cebd eff9 a93d 1802 993d
000002f0: 65d8 bebd 67c7 213e f396 f3bd 4d45 813d
00000300: 10f9 6fbc e32c babd 9602 6fbd 0b1f 733d
00000310: 671e c5bc f3a0 aebd 3ec3 e3bd 58b0 0c3e
00000320: 7b50 df3c 901a fbbd bca9 0a3e a429 233d
00000330: fca6 323d 0092 a93d 4ca8 9e3b a3be 613d
00000340: 629f b93d 81e3 963d 1db5 273d a76e be3d
00000350: 444e 743d cc5b cbbd 4cea 28bc 62a4 2a3c
00000360: bcfc d0bd d1b8 213c 2db1 a03d db3a a0bd
00000370: 669c a23c 94e4 b53d d8d7 6bbd 05f9 06be
00000380: e3a4 913c 8f76 123d 5f2e 45bd e63f d1bc
00000390: 43cf dc3d 807c a1bd fd3c 35bd 9cf3 91bd
000003a0: 4d69 c9bc 9854 11bb c805 56bd 2f67 a5bc
000003b0: 969c b8bd 4d48 77bd d93d ca3d 57dc 65bd
000003c0: 5294 dcbd 9cf7 b13d c908 76bd c512 aabd
000003d0: e27e 06be 6b79 68bc d276 62bd 67a2 13ba
000003e0: 1594 2f3d 9f68 abbd 33fd d8bd f7bb 6c3d
000003f0: 2c30 ed3d 00f5 4e3d 57ec 84bd 3a24 eabc

layer2.bias f4 [256]
0.08781132 0.002619536 0.08981539 -0.036128186 0.003818211 0.09326371 0.0019797508 0.05810036
-0.022254135 -0.042328373 0.010488665 0.06097074 -0.064094186 0.0067614736 0.024634171 0.022664718
-0.015270565 0.014387086 -0.06336935 -0.07972552 0.028940272 -0.05581119 -0.072829194 -0.04572309
-0.034708507 0.04861626 -0.018811382 0.028999245 -0.03160093 -0.109326184 -0.046331048 -0.042883176
-0.03968257 0.04727362 -0.09586578 -0.042893644 0.024153931 0.010053164 -0.0006072148 -0.015388122
-0.006532877 -0.05114827 -0.040893648 0.04881139 0.02837188 -0.03077012 0.01908153 -0.011711598
-0.02016209 0.001973551 -0.052027848 -0.07107712 0.03137178 0.052104432 0.014060752 -0.015789706
-0.05619081 0.0386535 -0.044533875 0.014494185 0.04115385 0.013758705 -0.00019438332 0.02923986
0.04799271 0.030370446 -0.09439566 -0.06853568 0.13001083 -0.07509703 0.020467749 0.0535696
0.043179896 0.034885775 -0.008348184 -0.064127676 -0.119044416 0.09034748 -0.04121275 0.0019308046
0.053603366 -0.015432841 0.03564533 -0.11509126 -0.021153204 0.03215901 -0.06378963 0.015508205
0.033452313 0.057331573 -0.03398194 -0.028737059 0.05629379 -0.058261096 -0.013531728 0.09608967
-0.055599883 -0.033946235 0.018538075 -0.06501238 -0.0026394268 0.011510862 0.0027393692 -0.015549535
0.09577333 -0.039565682 -0.042188838 0.030769771 0.03920607 0.049866118 -0.009004806 -0.057649747
0.04138851 -0.07764506 -0.07412514 0.06929624 -0.0343229 0.008865787 -0.022479298 0.042432822
-0.00905461 0.06346808 0.027712079 -0.02306452 -0.021208622 -0.007716234 -0.0013258143 0.10302933
0.025627825 -0.008838729 0.023943204 0.08080439 -0.04784534 0.033799432 0.022238415 0.0451419
-0.046520054 0.055866133 -0.02313793 0.007121466 -0.07372049 0.0074644107 0.024305394 -0.056643724
-0.0453308 -0.049118698 0.032184925 0.023993967 -0.0390053 0.03365609 -0.023422595 -0.041516848
-0.07617211 0.033897087 -0.10826992 -0.009886934 0.05974206 0.007892542 -0.010489824 0.033909474
-0.0726636 0.09370517 -0.06300046 0.028510509 -0.090908 -0.0060540587 -0.015277636 -0.031580433
-0.013969754 -0.03211977 -0.05776601 0.070524156 0.09959087 0.09298623 0.1490371 -0.05385339
0.10753236 -0.007083686 -0.075812764 -0.007137626 -0.055136535 0.05812964 0.019190395 0.10720121
-0.007175431 -0.048222754 0.023823837 -0.031523857 -0.022416139 0.007141117 -0.021190304 -0.08495071
-0.063975714 -0.029561287 0.023814978 -0.020230466 0.017288303 0.09580655 0.060411822 0.030318378
0.016419036 0.107014254 -0.020789156 -0.06405344 -0.08353367 -0.052190807 0.0032399448 -0.02162191
0.0073358137 0.029037641 -0.0100799855 -0.044291608 0.000340804 0.05336942 -0.05788459 0.03792974
-0.019009791 -0.021891441 0.024459576 0.015548636 -0.08584832 -0.096814245 -0.07742891 -0.04603157
-0.011292587 -0.018328568 0.077077016 -0.0883045 -0.021152824 0.05225706 0.10043998 -0.0028917305
-0.08629402 0.0015728851 0.017411098 -0.026623767 -0.0075032907 -0.041276556 -0.012202964 -0.028804237
0.0434729 0.01518361 0.07761782 0.032334007 0.017073143 -0.08562957 0.020539166 0.03369276
0.019072892 -0.09652565 0.012899238 0.021364668 -0.033940334 -0.031463508 0.01451725 -0.01554032
00000000: 6cd6 b33d 85ac 2b3b 22f1 b73d 26fb 13bd
00000010: f33a 7a3b 0b01 bf3d b5be 013b a5fa 6d3d
00000020: 4e4e b6bc 8460 2dbd a6d8 2b3c 74bc 793d
00000030: d043 83bd 5a8f dd3b 9acd c93c 5cab b93c
00000040: 6431 7abc d0b7 6b3c cac7 81bd 2247 a3bd
00000050: 2614 ed3c 469a 64bd 7927 95bd 2348 3bbd
00000060: 822a 0ebd d821 473d 541a 9abc d38f ed3c
00000070: fa6f 01bd 68e6 dfbd a0c5 3dbd 45a6 2fbd
00000080: 318a 22bd fca1 413d 4755 c4bd 3fb1 2fbd
00000090: 77de c53c 07b6 243c 7f2d 1fba 761e 7cbc
000000a0: bf11 d6bb d980 51bd 1980 27bd 74ee 473d
000000b0: 256c e83c 9e11 fcbc de50 9c3c 01e2 3fbc
000000c0: f82a a5bc b156 013b 271b 55bd e290 91bd
000000d0: b27f 003d 756b 553d 115f 663c 6a59 81bc
000000e0: 5628 66bd 2253 1e3d 2769 36bd 0579 6d3c
000000f0: f090 283d 316c 613c 60d3 4bb9 6e88 ef3c
00000100: 0194 443d 71cb f83c 8352 c1bd 6f5c 8cbd
00000110: 8f21 053e 79cc 99bd fbab a73c cc6b 5b3d
00000120: 67dd 303d 63e4 0e3d d2c6 08bc 5f55 83bd
00000130: 8fcd f3bd 1908 b93d b3ce 28bd 0d13 fd3a
00000140: 348f 5b3d 07da 7cbc d600 123d f7b4 ebbd
00000150: 7c49 adbc 2bb9 033d 23a4 82bd 2016 7e3c
00000160: 4b05 093d 83d4 6a3d a630 0bbd fb69 ebbc
00000170: 5194 663d 30a3 6ebd 2eb4 5dbc a9ca c43d
00000180: b4bc 63bd 350b 0bbd 29dd 973c 3625 85bd
00000190: 3cfa 2cbb 0e98 3c3c fd86 333b 7ac3 7ebc
000001a0: cf24 c43d a00f 22bd 34ce 2cbd e310 fc3c
000001b0: 8b96 203d 6a40 4c3d e588 13bc 2422 6cbd
000001c0: 0087 293d 6004 9fbd ecce 97bd 30eb 8d3d
000001d0: 2b96 0cbd ce41 113c 8126 b8bc 0ace 2d3d
000001e0: c959 14bc 8dfb 813d 7104 e33c cef1 bcbc
000001f0: b4bd adbc 76d8 fcbb f2c6 adba 0b01 d33d
00000200: 72f1 d13c 51d0 10bc 8a24 c43c c67c a53d
00000210: 7af9 43bd 4671 0a3d 562d b63c b7e6 383d
00000220: d08b 3ebd e3d3 643d c28b bdbc 305b e93b
00000230: c5fa 96bd 0498 f43b 1b1c c73c 4003 68bd
00000240: caac 39bd b030 49bd 57d4 033d ff8e c43c
00000250: 05c4 1fbd f8da 093d bee0 bfbc 920d 2abd
00000260: 2000 9cbd acd7 0a3d 9fbc ddbd cffc 21bc
00000270: 17b4 743d b84f 013c 83dd 2bbc a9e4 0a3d
00000280: a7d0 94bd 7fe8 bf3d 6306 81bd df8e e93c
00000290: f92d babd 2061 c6bb 0d4f 7abc 7c5a 01bd
000002a0: 65e1 64bc 0590 03bd 0d9c 6cbd f86e 903d
000002b0: 4cf6 cb3d 916f be3d 2e9d 183e 5f95 5cbd
000002c0: ed39 dc3d 441e e8bb b943 9bbd bfe2 e9bb
000002d0: d9d6 61bd 5819 6e3d 2d35 9d3c 4f8c db3d
000002e0: e11f ebbb 3985 45bd 352a c33c 291f 01bd
000002f0: 0da2 b7bc 0800 ea3b 4a97 adbc a3fa adbd
00000300: b305 83bd 832a f2bc a117 c33c 5dba a5bc
00000310: 33a0 8d3c 3936 c43d 6372 773d 3f5e f83c
00000320: 3781 863c 4a2a db3d 054e aabc 732e 83bd
00000330: b313 abbd 07c6 55bd 4155 543b 6f20 b1bc
00000340: 4461 f03b 59e0 ed3c 8626 25bc 1e6b 35bd
00000350: f0ad b239 e599 5a3d 6418 6dbd 375c 1b3d
00000360: 6cba 9bbc ae55 b3bc 735f c83c b5bf 7e3c
00000370: 3ed1 afbd 8c46 c6bd 0c93 9ebd 998b 3cbd
00000380: 8b04 39bc cb25 96bc 8eda 9d3d fdd8 b4bd
00000390: b048 adbc 800b 563d 7ab3 cd3d 3083 3dbb
000003a0: ebba b0bd 4429 ce3a b8a1 8e3c 161a dabc
000003b0: 2ade f5bb 9b11 29bd f1ee 47bc ddf6 ebbc
000003c0: a410 323d adc4 783c 17f6 9e3d aa70 043d
000003d0: fadc 8b3c 8e5e afbd c141 a83c 6b01 0a3d
000003e0: c13e 9c3c 3daf c5bd 5357 533c f504 af3c
000003f0: 0505 0bbd e1df 00bd c2d9 6d3c d49c 7ebc

layer2_input.weight f4 [256, 3]
0.027093932 0.11881306 -0.06475528 -0.05051293 0.16803737 -0.06339171 0.18062091 0.09044039
-0.24527727 0.056764133 0.11075743 -0.16245551 -0.14576708 -0.02978915 -0.08065761 0.05642775
0.07813379 -0.0066075516 -0.1395951 -0.028886916 -0.02985131 0.18109415 -0.13007788 -0.08286005
0.05703709 -0.09647699 0.0403112 0.12338704 0.11614434 -0.042412963 0.26705843 -0.035983335
-0.013643677 -0.04740151 0.08973884 -0.010444485 0.09127976 -0.0461456 0.05861774 -0.107520655
0.0908925 0.0026556056 0.07786893 0.09608118 -0.1118612 0.16712174 -0.092391394 -0.07477451
0.10533867 0.18247266 0.25355288 0.17326118 -0.08930057 0.052473824 0.18292171 0.04288367
-0.1183561 0.08144478 0.041346543 0.07739462 0.04296266 -0.043265916 0.037648313 -0.0910899
-0.17364246 -0.08779965 -0.059711978 0.13825099 0.14768119 -0.08662673 0.054386944 -0.123218805
-0.102141134 0.17658903 0.018220207 0.059587643 -0.07617551 0.059826285 0.007097643 0.008686076
-0.046653435 0.029543938 0.04376676 -0.048427835 -0.0357009 0.08418583 -0.06827393 0.069068104
0.044903405 -0.007935715 0.09700802 -0.0039243987 -0.035865795 0.041400533 0.075801 -0.17775305
-0.035381887 -0.114135675 8.547451e-05 -0.117115006 0.15289505 -0.055444356 -0.17054558 -0.07287414
0.04256577 0.011917385 0.015720166 0.12388452 0.08687416 0.10123873 -0.050027538 0.18932725
0.06715941 0.032878403 -0.023380881 -0.13102417 -0.06069479 0.10209797 0.12879892 0.14078389
-0.06872743 0.059214234 0.11112309 0.06376031 -0.1278667 0.11007587 0.11726683 0.06293742
-0.13014701 -0.13795348 -0.05048391 -0.009815744 -0.045603413 0.0978161 0.07194141 0.0013247231
0.012514878 -0.06321121 -0.1502441 0.080863915 -0.021249874 -0.10238639 -0.05401121 -0.02687867
0.002177655 -0.14379565 -0.05303646 0.26431796 0.05925844 -0.07329092 0.06514519 -0.012896208
0.13905746 -0.2542788 -0.003929607 -0.025330544 -0.2068479 -0.0651478 -0.077532984 0.13268407
-0.12956646 0.117989644 -0.013174662 0.14459431 0.09571728 0.00915002 0.033212423 0.062125962
0.012644623 0.14500362 0.060873516 -0.009938533 -0.07417138 -0.036210097 -0.15598421 -0.047088053
0.035449333 0.084286176 -0.07345679 0.04101745 0.2118669 -0.16458996 0.08410969 -0.16721894
0.061585598 0.15436348 0.08808326 0.09437438 0.13341533 -0.07411068 0.12253656 0.12641737
0.02088811 0.08382698 -0.06669589 0.026806919 0.13532831 0.11944831 -0.19237219 -0.02123311
0.07168164 0.0364325 0.13051023 -0.10449968 -0.01834857 0.093536116 -0.04026882 0.1957435
-0.02649043 -0.04397914 0.058810364 0.1382922 -0.13748485 0.04844164 0.13610156 -0.07262754
-0.07138342 -0.06840191 0.11944524 -0.12673077 -0.015068182 -0.12120405 0.21685225 0.026976965
0.046830285 -0.13996297 0.026228836 -0.08466197 -0.04387209 0.11502318 -0.1301044 0.07904126
-0.13632068 -0.13782096 0.0094899945 0.18362345 -0.06640546 0.16581102 -0.055603117 0.060387265
-0.16343391 0.004092625 0.11061097 0.116844155 0.029236466 -0.061426584 0.21997377 0.08487996
0.008701186 -0.15504844 0.059711058 0.05670272 -0.097584054 -0.0034974334 -0.019676508 -0.032652218
00000000: 18f4 dd3c 4354 f33d 6b9e 84bd a5e6 4ebd
00000010: fd11 2c3e 83d3 81bd b0f4 383e d038 b93d
00000020: f729 7bbe 8281 683d cbd4 e23d bd5a 26be
00000030: f743 15be 6008 f4bc d12f a5bd c920 673d
00000040: 9c04 a03d 2984 d8bb 05f2 0ebe 41a4 ecbc
00000050: bc8a f4bc bf70 393e 2333 05be 88b2 a9bd
00000060: b99f 693d ba95 c5bd 5b1d 253d 58b2 fc3d
00000070: 15dd ed3d 37b9 2dbd e2bb 883e 4363 13bd
00000080: bb89 5fbc 1628 42bd ffc8 b73d 581f 2bbc
00000090: e2f0 ba3d 2b03 3dbd 2819 703d ca33 dcbd
000000a0: d925 ba3d ab09 2e3b bf79 9f3d 36c6 c43d
000000b0: 7c17 e5bd f621 2b3e b337 bdbd 6123 99bd
000000c0: cdbb d73d 1dda 3a3e afd1 813e 616b 313e
000000d0: 38e3 b6bd cbee 563d d44f 3b3e caa6 2f3d
000000e0: af64 f2bd 85cc a63d fe5a 293d 1281 9e3d
000000f0: 9df9 2f3d 9a37 31bd 1e35 1a3d 578d babd
00000100: 54cf 31be 4ed0 b3bd 8c94 74bd ab91 0d3e
00000110: bd39 173e 5b69 b1bd d8c4 5e3d 245a fcbd
00000120: 5f2f d1bd c1d3 343e 8b42 953c 2c12 743d
00000130: e801 9cbd 680c 753d 5893 e83b 0b50 0e3c
00000140: ac17 3fbd 2106 f23c c644 333d 445c 46bd
00000150: 1b3b 12bd 9f69 ac3d 34d3 8bbd 9473 8d3d
00000160: a2ec 373d cd04 02bc 24ac c63d 3e98 80bb
00000170: 03e8 12bd 9b93 293d 8e3d 9b3d e504 36be
00000180: 99ec 10bd f7bf e9bd c740 b338 fed9 efbd
00000190: 8590 1c3e 9f19 63bd 80a3 2ebe 0a3f 95bd
000001a0: 7259 2e3d 2341 433c 94c7 803c 2bb7 fd3d
000001b0: 14eb b13d 4056 cf3d ade9 4cbd 01df 413e
000001c0: df8a 893d 81ab 063d 4389 bfbc 332b 06be
000001d0: 1a9b 78bd be18 d13d dde3 033e a729 103e
000001e0: f8c0 8cbd a08a 723d 8194 e33d c494 823d
000001f0: 7def 02be 756f e13d 9729 f03d 56e5 803d
00000200: 4245 05be ad43 0dbe 37c8 4ebd 37d2 20bc
00000210: a5ca 3abd cf53 c83d 0556 933d 55a2 ad3a
00000220: 340b 4d3c e174 81bd 97d9 19be fb9b a53d
00000230: 3714 aebc f5af d1bd dc3a 5dbd a830 dcbc
00000240: fdb6 0e3b 2b3f 13be c23c 59bd af54 873e
00000250: fab8 723d 8d19 96bd d76a 853d 9e4a 53bc
00000260: 1465 0e3e d530 82be efc3 80bb 0082 cfbc
00000270: f0cf 53be 366c 85bd 9dc9 9ebd 55de 073e
00000280: 12ad 04be 8ea4 f13d 8ada 57bc 8810 143e
00000290: 6c07 c43d f7e9 153c c009 083d cb77 7e3d
000002a0: 652b 4f3c d47b 143e 8256 793d 3bd5 22bc
000002b0: 2ae7 97bd 0a51 14bd 53ba 1fbe 67df 40bd
000002c0: 5233 113d 3b9e ac3d 8370 96bd ea01 283d
000002d0: a3f3 583e 458a 28be b341 ac3d 713b 2bbe
000002e0: 2e41 7c3d 7611 1e3e ff64 b43d 5b47 c13d
000002f0: 079e 083e 57c7 97bd 73f4 fa3d 8e73 013e
00000300: 8b1d ab3c 7bad ab3d db97 88bd 2f9a db3c
00000310: 8193 0a3e 51a1 f43d 37fd 44be 0ff1 adbc
00000320: d3cd 923d 3f3a 153d 79a4 053e ee03 d6bd
00000330: be4f 96bc dd8f bf3d ebf0 24bd fc70 483e
00000340: 7502 d9bc 7923 34bd 23e3 703d 789c 0d3e
00000350: d4c8 0cbe be6a 463d 355e 0b3e bfbd 94bd
00000360: 7831 92bd 4d16 8cbd b59f f43d b6c5 01be
00000370: 89e0 76bc d439 f8bd 840e 5e3e ccfe dc3c
00000380: 1dd1 3f3d 7452 0fbe dbdd d63c 4163 adbd
00000390: 38b3 33bd 4691 eb3d 163a 05be 62e0 a13d
000003a0: a697 0bbe f020 0dbe ec7b 1b3c c907 3c3e
000003b0: 96ff 87bd 5dca 293e 18c0 63bd a358 773d
000003c0: 385b 27be 6d1b 863b 0188 e23d fd4b ef3d
000003d0: 5081 ef3c 719a 7bbd ce40 613e 8bd5 ad3d
000003e0: 6b8f 0e3c 05c5 1ebe 9593 743d 1c41 683d
000003f0: 26da c7bd 3235 65bb a130 a1bc 55be 05bd

layer2_input.bias f4 [256]
-0.2356414 0.48060745 0.42443123 -0.12535161 -0.22392483 -0.2333272 -0.42305353 0.3606788
0.43676808 -0.22807671 0.1717384 -0.49897942 0.5461761 0.10007894 -0.1527028 -0.5240724
0.53499746 0.20421688 -0.51273566 -0.11140724 0.36592674 0.297939 -0.19985718 0.27198374
-0.23822996 0.1402358 0.2595155 -0.33735186 -0.42925924 -0.23863573 0.060875777 -0.03581114
-0.3532682 -0.41011947 0.33114427 -0.34928307 -0.09743587 -0.17329822 0.42642635 -0.62526464
0.046650466 0.06317485 -0.24282421 -0.1967387 0.50848764 0.3791809 -0.46652037 0.011577727
0.5164164 -0.2600584 -0.31671417 0.085424766 0.2296011 -0.15824507 -0.12347037 -0.39148393
-0.0022978506 -0.010032603 0.354068 -0.08700042 0.49990982 0.4520268 0.4016039 0.13160576
0.37030336 -0.3713349 0.01918274 0.3762995 -0.24735269 -0.20588744 0.24842708 0.2227827
0.047638066 -0.071783744 -0.19427471 0.39028293 0.42354545 -0.3114512 -0.48992997 -0.12590805
-0.34036416 0.09533169 -0.28468072 0.3578419 0.4179369 -0.26397094 0.38642502 0.40655
-0.5618929 -0.1805646 0.17305517 -0.17673822 -0.24534358 0.27297032 0.3774538 -0.4897932
-0.0051418557 0.27602658 -0.14286461 0.39982587 0.05868192 0.30637407 0.24661611 -0.1516597
-0.3126382 0.19220917 -0.15986285 -0.57921165 -0.22277482 0.34416822 -0.004043069 -0.49028498
-0.3707818 0.06566536 -0.2180542 -0.3355004 0.4653034 -0.1123578 -0.33310014 0.48589823
0.04768653 0.27794847 0.00041960023 0.3030437 0.072629444 -0.45724407 -0.0028676647 0.0547981
0.5971487 0.33254722 0.10876564 -0.27881327 0.37942642 -0.02812718 0.21952823 -0.17438895
-0.35519734 0.094932 -0.54648423 -0.34316564 0.035589915 -0.0056355144 0.06734883 0.24816704
0.42566043 -0.17281125 -0.25583202 -0.13037816 -0.001603432 0.59337413 0.34228933 -0.37714168
-0.41806173 -0.525828 -0.15305108 0.042146534 -0.14519674 -0.4903627 -0.019790279 0.37324286
0.42197004 -0.4611389 0.33701152 0.13436158 0.27599168 0.498628 0.39147994 0.32102856
0.03773729 -0.27078506 -0.24543443 -0.30672112 -0.12598044 -0.24730119 -0.4760877 -0.24210215
-0.42786348 -0.057389643 0.028858915 0.4579527 0.5015721 0.34466112 0.28703162 -0.47178304
-0.46305385 -0.15321426 0.05396846 -0.046690457 -0.23000367 0.5105336 -0.27366844 -0.028239898
0.39849433 -0.014994113 -0.39587983 -0.02365794 -0.27517807 -0.49065283 -0.46372038 0.23695241
-0.0967483 -0.4830411 -0.34794053 0.4297792 0.19540331 0.10434402 -0.28835937 0.34637606
-0.45660275 0.4098266 0.2420777 -0.38533968 0.25523612 -0.38068134 -0.3306969 -0.5176527
-0.1387569 -0.14407665 -0.32736912 -0.17068307 -0.51183677 0.095935024 0.07499805 -0.37769625
-0.021185188 0.32842806 -0.34355056 -0.03177831 0.30983004 -0.038248744 -0.49979788 0.07048878
0.210106 0.06190075 0.045141406 0.24234955 0.4301885 0.37539142 0.116252735 -0.049478196
-0.17541665 -0.077372506 0.402792 -0.25320634 -0.26555708 -0.19253337 -0.49516377 -0.42350093
-0.48580626 -0.117521875 -0.4113734 0.026218152 0.4901556 0.07163961 0.15667695 0.27098185
00000000: fb4b 71be 2e12 f63e 0d4f d93e 2c5c 00be
00000010: 8d4c 65be 53ed 6ebe 799a d8be e4aa b83e
00000020: 11a0 df3e f18c 69be 31dc 2f3e 3b7a ffbe
00000030: 32d2 0b3f 30f6 cc3d 1f5e 1cbe 9c29 06bf
00000040: 98f5 083f 3b1e 513e a542 03bf 7b29 e4bd
00000050: c05a bb3e 768b 983e 5ca7 4cbe 7441 8b3e
00000060: 8ef2 73be f999 0f3e 37df 843e 62b9 acbe
00000070: dec7 dbbe ed5c 74be e158 793d b4ae 12bd
00000080: 92df b4be 2efb d1be be8b a93e 3bd5 b2be
00000090: 758c c7bd 1775 31be 8e54 da3e 5811 20bf
000000a0: 8f14 3f3d d161 813d e9a6 78be df75 49be
000000b0: 3f2c 023f 0024 c23e c2db eebe 82b0 3d3c
000000c0: dd33 043f 6026 85be 5c28 a2be 2ef3 ae3d
000000d0: 8d1c 6b3e ff0a 22be 09de fcbd 9570 c8be
000000e0: 8997 16bb c95f 24bc 6748 b53e 472d b2bd
000000f0: 2ef4 ff3e 0f70 e73e 079f cd3e a9c3 063e
00000100: 6798 bd3e 9c1f bebe 1f25 9d3c 54aa c03e
00000110: 064a 7dbe 28d4 52be ab63 7e3e 2621 643e
00000120: 2220 433d 5b03 93bd f3ef 46be 2ad3 c73e
00000130: f3da d83e 8876 9fbe 1ad8 fabe 0aee 00be
00000140: 3644 aebe 433d c33d acc1 91be 0e37 b73e
00000150: d3fb d53e 3327 87be 80d9 c53e 5227 d03e
00000160: 37d8 0fbf ede5 38be 6035 313e ddfa 34be
00000170: 593b 7bbe c4c2 8b3e a041 c13e 2dc6 fabe
00000180: 037d a8bb 5b53 8d3e 1a4b 12be fab5 cc3e
00000190: 745c 703d 10dd 9c3e ef88 7c3e ae4c 1bbe
000001a0: 1d12 a0be 7bd2 443e 16b3 23be 3747 14bf
000001b0: 151f 64be d136 b03e b97b 84bb a206 fbbe
000001c0: 1dd7 bdbe 8f7b 863d 9a49 5fbe b5c6 abbe
000001d0: 3f3c ee3e d91b e6bd 1a8c aabe a7c7 f83e
000001e0: f352 433d 434f 8e3e cafd db39 8b28 9b3e
000001f0: bfbe 943d e51b eabe 6eef 3bbb f973 603d
00000200: bdde 183f a143 aa3e 85c0 de3d 9dc0 8ebe
00000210: 2e44 c23e f96a e6bc 02cc 603e 0493 32be
00000220: 6ddc b5be b56b c23d 64e6 0bbf 68b3 afbe
00000230: bbc6 113d 1faa b8bb 2fee 893d 801f 7e3e
00000240: 2af0 d93e 6ff5 30be 6afc 82be da81 05be
00000250: 402a d2ba 5ee7 173f 8c40 af3e b718 c1be
00000260: 300c d6be aa9c 06bf 6cb9 1cbe d8a1 2c3d
00000270: 74ae 14be d210 fbbe 391f a2bc b019 bf3e
00000280: 750c d83e 661a ecbe c68c ac3e 1596 093e
00000290: c84e 8d3e 2b4c ff3e 0f70 c83e db5d a43e
000002a0: 6b92 1a3d 57a4 8abe 2a53 7bbe 8d0a 9dbe
000002b0: 0401 01be 863c 7dbe c4c1 f3be a0e9 77be
000002c0: ec10 dbbe 6711 6bbd 8869 ec3c c778 ea3e
000002d0: 0767 003f 6c77 b03e cff5 923e 8c8d f1be
000002e0: 6515 edbe 33e4 1cbe 080e 5d3d 7e3e 3fbd
000002f0: 1586 6bbe 54b2 023f 451e 8cbe 5c57 e7bc
00000300: 7307 cc3e dea9 75bc c3b0 cabe 4cce c1bc
00000310: 24e4 8cbe d936 fbbe c26c edbe a7a3 723e
00000320: f923 c6bd 2a51 f7be 4325 b2be 050c dc3e
00000330: ce17 483e 51b2 d53d d7a3 93be 3458 b13e
00000340: d6c7 e9be cbd4 d13e 37e3 773e 3e4b c5be
00000350: 4fae 823e aae8 c2be 1b51 a9be e384 04bf
00000360: 4a16 0ebe d488 13be ed9c a7be 8bc7 2ebe
00000370: bc07 03bf 9579 c43d 9498 993d 6761 c1be
00000380: 8f8c adbc b927 a83e dce5 afbe f929 02bd
00000390: 0ba2 9e3e b7aa 1cbd 82e5 ffbe 6c5c 903d
000003a0: 0726 573e a48b 7d3d 32e6 383d 7b2a 783e
000003b0: ab41 dc3e 4e33 c03e ea15 ee3d a6a9 4abd
000003c0: 6ca0 33be 7a75 9ebd c13a ce3e 43a4 81be
000003d0: 19f7 87be 7827 45be 1b86 fdbe 1dd5 d8be
000003e0: 99bb f8be 4faf f0bd 899f d2be 73c7 d63c
000003f0: adf5 fa3e cab7 923d ec6f 203e 22be 8a3e

layer3.weight f4 [256, 256]
-0.07264483 0.04584757 -0.154421 0.081163645 0.017967388 0.057272725 0.16075115 -0.051590137
-0.04828114 -0.12387257 0.031117922 0.07934252 0.05610211 -0.049914956 -0.09994213 0.063118756
-0.07302635 -0.007859086 -0.09537721 -0.013056885 -0.030612087 0.11450839 -0.00987908 0.039337985
-0.114097536 -0.0013191537 -0.039698604 -0.11405749 0.09707479 -0.025112074 -0.043120828 -0.022359071
0.022742439 -0.07588514 0.04413225 -0.11332511 0.007630589 0.021474132 -0.046504397 -0.040632956
0.11791194 -0.02273673 0.013745214 0.08299122 -0.12438814 0.06801044 0.07783051 0.0038754237
0.07676557 -0.16034347 -0.017243234 0.11251031 0.031450205 -0.035962 -0.08795895 -0.12939812
-0.06456175 -0.039790083 -0.12449625 -0.030001631 0.062074102 -0.02088603 0.04446493 0.08606138
-0.0017087026 -0.042597193 0.02078429 0.034282245 0.0047375653 -0.115580335 -0.044741806 -0.08964917
0.00696193 0.071061805 -0.13195536 0.093221955 -0.0977069 -0.01626677 -0.1436369 -0.057630036
0.04117919 0.05326827 -0.14754449 -0.09672792 -0.03172579 0.006636021 -0.020916821 -0.0547237
0.000111258116 0.005781611 -0.103881724 -0.039074495 -0.034959953 0.051427484 -0.09312584 0.10504539
-0.01019995 0.004959452 0.08676712 -0.018928412 0.10434723 0.1819834 0.0004208238 -0.021242492
0.12081561 0.024626045 -0.03152965 -0.040199205 0.032354325 0.024472052 -0.09513563 0.08952146
0.10264015 -0.1230337 -0.12085212 0.06544991 0.21510378 0.056928173 0.08715807 -0.054885086
0.018270932 -0.13312598 0.048908256 -0.073631704 -0.064290665 0.10176142 0.09007782 -0.019452747
-0.035835937 -0.035844658 -0.040830363 -0.059899364 -0.10379148 0.0060235844 -0.06537034 -0.15799595
0.01674197 -0.12894447 0.072693326 0.058378782 -0.045719955 0.03634984 -0.12014123 0.06717941
-0.11322318 0.02657135 -0.005567454 -0.018664373 -0.0014836456 0.049256627 -0.08252593 -0.12147128
-0.13530733 -0.022254126 0.083843015 -0.02092868 -0.021423796 0.07993178 0.08017228 -0.100707896
0.02801228 -0.010456899 0.039006613 0.1017314 0.06094115 0.051645473 0.031674676 0.027730545
-0.060710773 0.0018130259 -0.07008772 0.080901906 -0.072394356 -0.07607201 0.09614184 0.05097651
0.09632601 -0.012235207 0.040038686 -0.10475046 -0.14224102 -0.050188743 -0.079051636 -0.04409764
0.03492387 0.08845282 0.04638318 -0.0142548485 0.10523895 -0.0002499735 0.07062731 -0.027899018
-0.07724022 0.025335932 -0.11675726 0.044167444 0.09182858 0.039261617 -0.038819496 -0.023006335
-0.1561894 0.028428016 0.12376139 -0.09600753 0.024529137 0.06007241 0.08148722 0.03605575
-0.08765062 0.1308452 0.045405272 0.058733482 0.056214232 0.042722937 0.07392794 0.109116316
0.07590757 -0.031285606 0.08981353 0.0052154963 -0.09633155 -0.026725892 0.070548035 -0.033830464
-0.105146214 -0.09199774 -0.09465513 0.06964408 0.13466822 -0.055491667 0.06490186 0.071619056
0.017941209 0.03445284 0.07917622 0.03351295 -0.040447306 0.055908345 -0.07979508 -0.07364377
0.10422784 0.030711971 -0.20497926 0.042882625 -0.021634849 -0.022117147 -0.0795122 -0.011104944
-0.06640142 0.062012713 0.005308859 0.055938 -0.024932062 -0.10477989 -0.008915496 -0.077208936
00000000: d0c6 94bd a9ca 3b3d 8a20 1ebe 2039 a63d
00000010: 5830 933c ce96 6a3d f39b 243e 2e50 53bd
00000020: 72c2 45bd e7b0 fdbd 03eb fe3c 557e a23d
00000030: 53cb 653d a073 4cbd 76ae ccbd 6844 813d
00000040: d78e 95bd 65c3 00bc 2055 c3bd 8cec 55bc
00000050: 33c6 fabc 6083 ea3d dddb 21bc de20 213d
00000060: f8ab e9bd 74e7 acba 019b 22bd f996 e9bd
00000070: 26cf c63d d6b7 cdbc 779f 30bd 5f2a b7bc
00000080: 5a4e ba3c ab69 9bbd 05c4 343d ff16 e8bd
00000090: 050a fa3b 85ea af3c 657b 3ebd be6e 26bd
000000a0: d17b f13d 6142 babc 9b33 613c 4df7 a93d
000000b0: 36bf febd 0f49 8b3d 9a65 9f3d d2fa 7d3b
000000c0: 4437 9d3d 1431 24be af41 8dbc ce6b e63d
000000d0: eed1 003d e44c 13bd d223 b4bd f180 04be
000000e0: f338 84bd edfa 22bd e4f7 febd fbc5 f5bc
000000f0: 6a41 7e3d 2e19 abbc dc20 363d f340 b03d
00000100: 8cf6 dfba 657a 2ebd d143 aa3c 8a6b 0c3d
00000110: 943d 9b3b 62b5 ecbd 2f43 37bd fc99 b7bd
00000120: e720 e43b da88 913d 4e1f 07be 27eb be3d
00000130: 8e1a c8bd e441 85bc 8d15 13be 790d 6cbd
00000140: 83ab 283d d42f 5a3d e715 17be 4a19 c6bd
00000150: e7f2 01bd fb72 d93b c159 abbc f525 60bd
00000160: 3f53 e938 ab73 bd3b f1bf d4bd 940c 20bd
00000170: 2b32 0fbd a0a5 523d c3b8 bebd 0a22 d73d
00000180: b11d 27bc e682 a23b f6b2 b13d c20f 9bbc
00000190: 00b4 d53d db59 3a3e 04a2 dc39 bc04 aebc
000001a0: 2d6e f73d 8fbc c93c 3c25 01bd eca7 24bd
000001b0: f885 043d 9d79 c83c 78d6 c2bd 0757 b73d
000001c0: 0035 d23d 18f9 fbbd 5181 f7bd 9a0a 863d
000001d0: 2a44 5c3e 842d 693d ee7f b23d 2fcf 60bd
000001e0: ecac 953c 2d52 08be 0654 483d 38cc 96bd
000001f0: d3aa 83bd 4b68 d03d b87a b83d 5e5b 9fbc
00000200: b4c8 12bd d9d1 12bd bd3d 27bd 0959 75bd
00000210: a190 d4bd 7d61 c53b e3e0 85bd b1c9 21be
00000220: 7526 893c 050a 04be 3de0 943d 971e 6f3d
00000230: d944 3bbd 92e3 143d 9b0c f6bd 5c95 893d
00000240: 8ee1 e7bd 29ac d93c 306f b6bb 07e6 98bc
00000250: e376 c2ba 51c1 493d 5b03 a9bd efc5 f8bd
00000260: 018e 0abe 494e b6bc e3b5 ab3d a072 abbc
00000270: f580 afbc 46b3 a33d 5d31 a43d f13f cebd
00000280: 027a e53c 6a53 2bbc 66c5 1f3d 8d58 d03d
00000290: 6d9d 793d 348a 533d 4ebd 013d 2b2b e33c
000002a0: dcab 78bd 0ea3 ed3a 278a 8fbd e6af a53d
000002b0: 7e43 94bd a4cb 9bbd 03e6 c43d bfcc 503d
000002c0: 9246 c53d 2d76 48bc 9bff 233d 6987 d6bd
000002d0: a1a7 11be b692 4dbd d3e5 a1bd ba9f 34bd
000002e0: 550c 0f3d c126 b53d 4afc 3d3d 2b8d 69bc
000002f0: 8587 d73d e00e 83b9 0da5 903d 7b8c e4bc
00000300: 1f30 9ebd 4d8d cf3c 6e1e efbd ece8 343d
00000310: 9f10 bc3d cad0 203d 3101 1fbd c877 bcbc
00000320: 1df0 1fbe dfe1 e83c 9d76 fd3d 999f c4bd
00000330: 54f1 c83c 7d0e 763d c6e2 a63d 32af 133d
00000340: 2b82 b3bd 49fc 053e e1fa 393d 8592 703d
00000350: e540 663d 3ffe 2e3d 8867 973d 6078 df3d
00000360: 6e75 9b3d 5625 00bd 28f0 b73d c1e6 aa3b
00000370: 7a49 c5bd 42f0 dabc 7d7b 903d d091 0abd
00000380: e656 d7bd 5069 bcbd 8cda c1bd 8ea1 8e3d
00000390: 77e6 093e 3b4b 63bd 44eb 843d 03ad 923d
000003a0: 71f9 923c 6c1e 0d3d 2427 a23d e044 093d
000003b0: 13ac 25bd 2600 653d 9a6b a3bd 8bd2 96bd
000003c0: 6875 d53d ac97 fb3c 15e6 51be b1a5 2f3d
000003d0: 913b b1bc 052f b5bc 4bd7 a2bd 83f1 35bc
000003e0: 78fd 87bd 0b01 7e3d f0f5 ad3b 3f1f 653d
000003f0: 533e ccbc d796 d6bd 4d12 12bc b81f 9ebd

layer3.bias f4 [256]
0.0064977305 -0.053365737 0.014708228 -0.031847276 -0.0056208814 0.05421212 0.07898957 0.0029418836
0.0074766255 -0.019417724 0.059914723 0.06404559 -0.010748339 -0.002157161 -0.011837151 0.081780836
-0.018808035 -0.027343318 0.043296 0.029653495 -0.027599538 -0.03565748 -0.028132113 0.0076964693
-0.0032085844 0.06866748 -0.0045685447 -0.0056671263 -0.037030656 -0.028086219 -0.005403371 0.021803394
0.024790825 0.034500826 0.004192205 0.017007833 -0.012231064 -0.012930592 -0.059561078 -0.09795232
0.118163355 -0.047942318 -0.013880743 -0.010348501 -0.031274263 0.01669948 -0.004117861 -0.002273916
-0.03555208 -0.06506474 0.05747314 -0.04952584 -0.026862662 -0.038377456 -0.036738355 -0.051185105
-0.070428535 0.026812663 0.017229427 -0.002443403 -0.01530873 0.037379794 0.06909611 -0.037277307
-0.06785187 0.044604994 -0.0489443 -0.020529894 0.0018974484 -0.055995055 0.04160335 -0.023609823
-0.034861207 -0.044740483 0.05192491 0.054960605 -0.016053244 -0.012726635 -0.0031610823 -0.08240922
-0.060812272 0.09621345 -0.109514415 0.01178866 -0.005343692 0.06732773 -0.022208655 -0.02391014
0.03345861 0.03817347 0.032084778 0.01491062 0.027341446 0.008542433 -0.111405335 0.055955227
0.04036925 0.04858517 0.009597619 -0.08202287 0.031482667 0.016877534 -0.03973729 -0.0069404524
0.0053306217 0.017121507 -0.024031572 -0.046777993 0.047722284 -0.062329404 0.014133549 0.045032907
-0.02719872 -0.04648896 -0.013878299 -0.040032748 0.032627285 -0.037007015 0.042990282 0.024970545
0.006439119 0.053246547 0.11297302 0.017914228 0.021784816 -0.041034665 0.029187016 0.039468423
0.00040026932 0.01340506 -0.037001092 -0.11882598 0.02489926 0.058722604 -0.041832145 -0.07586677
-0.011413369 -0.07386425 -0.03353886 -0.046417955 -0.05785627 -0.08080464 -0.011802425 -0.035294313
0.0221852 0.022819132 0.016636984 -0.04888345 0.06584215 0.032938097 -0.10946873 -0.028778568
0.0109186135 -0.054028787 -0.018192986 0.05091885 -0.0051269373 0.057449743 -0.041821755 0.02430758
-0.011573677 0.0047453446 0.034911394 -0.015351657 0.033659067 -0.031643845 0.051462926 -0.06759175
0.0332439 -0.041050788 0.0036939012 -0.05108353 0.033131525 0.005857743 0.08433294 -0.017017372
-0.032731134 -0.012157362 -0.024054281 0.03064077 0.00931471 -0.00085398275 0.010585188 0.03136615
-0.049679887 0.031176506 0.008716189 -0.061474107 0.052380122 0.021780148 0.083841495 -0.072640024
0.06037846 -0.058406126 0.0072224247 0.04336081 0.0056908918 0.10040901 -0.014953597 0.024104478
-0.12192796 0.068553425 0.05390926 -0.068259776 0.039465565 -0.027712552 0.087729976 -0.06038309
-0.051739786 -0.022053817 0.020023623 -0.060316745 0.009197765 0.012003774 -0.07027644 0.03105686
0.056672838 0.06692079 0.014011977 0.11374285 -0.113949426 -0.075763516 -0.03160051 0.08603574
-0.06624238 -0.018508727 -0.09385423 0.03491603 0.08337155 0.029807912 0.033163458 0.047134273
0.011462325 -0.08357355 0.09587573 0.025878036 -0.011974262 -0.018016197 0.02434958 0.0056334413
-0.034086805 -0.026394865 -0.090747505 0.015253034 0.05752026 0.04494103 -0.10086416 -0.020662587
-0.05124287 0.032901965 -0.054659154 -0.023316385 -0.008915544 -0.04958977 -0.034806926 0.00949714
00000000: eaea d43b 0896 5abd c8fa 703c 4a72 02bd
00000010: 5f2f b8bb 870d 5e3d 49c5 a13d 9ecc 403b
00000020: 7bfe f43b eb11 9fbc 2469 753d 562a 833d
00000030: cd19 30bc 285f 0dbb 9cf0 41bc b67c a73d
00000040: 4f13 9abc 18ff dfbc 2657 313d e3eb f23c
00000050: 6d18 e2bc 940d 12bd 5175 e6bc aa32 fc3b
00000060: 1d47 52bb 89a1 8c3d bbb3 95bb 4db3 b9bb
00000070: 75ad 17bd 1215 e6bc c30e b1bb 089d b23c
00000080: 2116 cb3c bd50 0d3d c45e 893b 0354 8b3c
00000090: cd64 48bc d5da 53bc 51f6 73bd 3a9b c8bd
000000a0: a1ff f13d 2a5f 44bd 0e6c 63bc c28c 29bc
000000b0: 7119 00bd 59cd 883c 1fef 86bb fb05 15bb
000000c0: 0f9f 11bd aa40 85bd f568 6b3d 9bdb 4abd
000000d0: 160f dcbc ae31 1dbd f57a 16bd 79a7 51bd
000000e0: d63c 90bd 3ba6 db3c ba24 8d3c 8021 20bb
000000f0: 78d1 7abc 8e1b 193d 4382 8d3d 17b0 18bd
00000100: ecf5 8abd bab3 363d d179 48bd 4f2e a8bc
00000110: ceb3 f83a 125b 65bd 4668 2a3d 6369 c1bc
00000120: a0ca 0ebd cc41 37bd 37af 543d 5f1e 613d
00000130: 1882 83bc 6083 50bc 292a 4fbb 2ac6 a8bd
00000140: 4a16 79bd 8f0b c53d 1849 e0bd 3925 413c
00000150: 231a afbb 1fe3 893d edee b5bc 33df c3bc
00000160: e50b 093d c95b 1c3d 546b 033d ac4b 743c
00000170: 2bfb df3c 90f5 0b3c 7b28 e4bd 4f31 653d
00000180: 3a5a 253d 3e01 473d 553f 1d3c 9bfb a7bd
00000190: f8f3 003d c142 8a3c 92c3 22bd bc6c e3bb
000001a0: 7fac ae3b 6742 8c3c dcdd c4bc 489a 3fbd
000001b0: 7178 433d 1e4d 7fbd 6790 673c 6d74 383d
000001c0: dacf debc 356b 3ebd ce61 63bc 61f9 23bd
000001d0: 30a4 053d ab94 17bd 9416 303d 078f cc3c
000001e0: 3fff d23b 0d19 5a3d 665e e73d dcc0 923c
000001f0: 1276 b23c f713 28bd 9c19 ef3c a4a9 213d
00000200: 3ddb d139 e6a0 5b3c 758e 17bd 095b f3bd
00000210: 88f9 cb3c 1d87 703d 2f58 2bbd 0a60 9bbd
00000220: 24ff 3abc 2446 97bd 0b60 09bd c120 3ebd
00000230: b2fa 6cbd e77c a5bd f55e 41bc c590 10bd
00000240: bdbd b53c 30ef ba3c 494a 883c 033a 48bd
00000250: 40d8 863d 19ea 063d 2431 e0bd 08c1 ebbc
00000260: fce3 323c 4a4d 5dbd 7509 95bc 4990 503d
00000270: deff a7bb 6c50 6b3d 4a4d 2bbd b120 c73c
00000280: 859f 3dbc d67e 9b3b 40ff 0e3d 8485 7bbc
00000290: 17de 093d fa9c 01bd caca 523d 8b6d 8abd
000002a0: c12a 083d df24 28bd 6115 723b f73c 51bd
000002b0: ecb4 073d 4ff2 bf3b c0b6 ac3d 0468 8bbc
000002c0: 1511 06bd ac2f 47bc 7c0d c5bc 5a02 fb3c
000002d0: ba9c 183c d0dd 5fba 7f6d 2d3c cb79 003d
000002e0: 237d 4bbd df65 ff3c 59ce 0e3c 46cc 7bbd
000002f0: 8a8c 563d 486c b23c 17b5 ab3d 4bc4 94bd
00000300: 674f 773d 433b 6fbd 17aa ec3b 1b9b 313d
00000310: a97a ba3b 3da3 cd3d efff 74bc c176 c53c
00000320: 5eb5 f9bd bd65 8c3d f5cf 5c3d c8cb 8bbd
00000330: a5a6 213d 6f05 e3bc c6ab b33d 4254 77bd
00000340: 19ed 53bd 35aa b4bc 9508 a43c b10e 77bd
00000350: 39b2 163c 7aab 443c 18ed 8fbd f56a fe3c
00000360: c721 683d c40d 893d 7e92 653c 03f2 e83d
00000370: 515e e9bd e729 9bbd 896f 01bd 8233 b03d
00000380: 16aa 87bd 9d9f 97bc a636 c0bd 1c04 0f3d
00000390: b4be aa3d b92f f43c 68d6 073d de0f 413d
000003a0: 7acc 3b3c 9c28 abbd 7f5a c43d 2dfe d33c
000003b0: b22f 44bc b496 93bc c578 c73c bb98 b83b
000003c0: 9b9e 0bbd 0b3a d8bc d4d9 b9bd dde7 793c
000003d0: 5d9a 6b3d 1614 383d de91 cebd 9644 a9bc
000003e0: 0be4 51bd 36c4 063d 47e2 5fbd 0102 bfbc
000003f0: 8012 12bc a51e 4bbd b591 0ebd e499 1b3c
