models/CallOption4-256XVAPaper.pth (torch, 821973 bytes, 15 tensors)

layer1.weight f4 [256, 2]
0.29956555 0.025753373 0.15309784 0.064503275 -0.24421416 0.10183835 0.16641328 -0.051651467
0.30741733 -0.11702477 0.09851353 0.2639882 0.28871745 -0.1101578 -0.24508004 0.23520395
0.012543196 -0.30889276 0.027812803 -0.23635182 -0.095456794 0.23194884 0.14728943 -0.042923536
-0.11073355 -0.037052155 -0.17472605 -0.064589664 0.06333618 0.16768928 0.016757214 -0.3680066
-0.21221755 -0.117191836 0.1336171 -0.51144284 0.16409971 0.06770366 0.34098893 -0.0742825
0.16829072 0.18222241 -0.35206494 0.024740577 -0.29193905 0.21870992 0.09552005 0.3164576
-0.1290674 0.15592715 0.16452165 -0.204132 0.07614661 -0.34420654 0.03678778 0.1392574
-0.15129791 -0.006169669 -0.110808186 -0.21663499 -0.37635875 0.10059976 -0.05538735 -0.0340158
-0.06962872 0.13626043 0.07482718 0.13530147 0.03974261 -0.00763322 -0.1224507 0.1295316
-0.03232959 0.25719973 0.27165994 0.011618083 0.35189557 -0.035165463 -0.40087938 0.16534758
0.107214116 0.38139153 0.060882587 0.06877214 -0.08304369 -0.17480706 0.06754815 0.2384134
-0.09387156 -0.009862602 0.030317472 -0.2102104 0.22449182 -0.1263558 -0.026197622 -0.3907953
-0.11140171 -0.056538947 0.13288687 0.19972114 -0.17402978 -0.34688702 -0.053522754 -0.3695398
0.10601039 -0.1102577 -0.087385945 0.030055352 0.15358306 -0.15596083 0.0012620201 0.46949422
0.13419953 -0.19528747 0.28266415 -0.18759146 0.11924981 -0.28789955 -0.26153615 0.03432422
-0.045563597 0.015319366 0.056250356 -0.4747318 -0.02683755 0.30071378 0.29076767 0.17950328
0.016930273 0.016523879 -0.071281694 0.280346 0.2327636 0.12698367 -0.04413338 0.017413586
-0.33272845 0.088214256 -0.026652407 -0.45168778 -0.14135769 0.31944075 0.06093638 -0.2962215
-0.13252582 -0.02048985 -0.0097114 -0.36905217 0.11737834 0.3395665 -0.08035446 0.32213393
0.057316102 0.41914776 0.12984177 0.31154662 0.057114776 -0.00924926 0.10206401 0.38404238
-0.14203586 0.05163317 -0.17642668 -0.05318502 -0.23964603 0.19835477 0.05759278 0.33754617
0.07292915 0.312502 0.14215437 -0.16613278 -0.0693152 0.24189708 0.3121159 0.21238512
0.11251414 0.36939505 -0.097033076 0.040271066 0.040786985 -0.09151281 0.2580756 0.05392822
0.14776042 -0.019546416 0.051445562 -0.25088283 0.3216746 -0.0778616 0.12993464 0.40074357
-0.36665228 0.020647537 -0.05011884 0.1496914 0.3426883 -0.057659727 -0.21963911 0.011509122
0.013883178 -0.18520539 0.40344116 0.014544343 -0.20064442 0.16049996 0.0031472284 -0.26805314
-0.24608728 -0.044460524 -0.04556169 0.37628597 -0.21288896 0.007270107 0.051711123 0.05322994
-0.13305674 0.11669061 -0.16131224 0.22154795 0.20520991 -0.314556 -0.26815876 0.13620755
0.06743225 -0.05493907 -0.32866278 0.021839267 -0.06588938 -0.02380574 0.049173076 -0.262346
-0.12898366 0.099266484 -0.35800484 0.1059984 0.19757006 0.06072412 0.011960079 -0.35115415
-0.12386877 -0.21975067 0.022216016 0.4307302 -0.20963119 -0.013778429 -0.07676923 0.4886196
0.044011246 -0.42896238 -0.40532154 -0.005270695 0.26913932 0.051075563 -7.797039e-06 0.25485012
00000000: a860 993e bdf8 d23c aec5 1c3e 4b1a 843d
00000010: 4713 7abe a090 d03d 3e68 2a3e 7d90 53bd
00000020: ce65 9d3e afaa efbd 76c1 c93d 7629 873e
00000030: c6d2 933e 6a9a e1bd 43f6 7abe 4ed9 703e
00000040: fa81 4d3c 3127 9ebe add7 e33c 3606 72be
00000050: da7e c3bd ff83 6d3e 0ad3 163e 97d0 2fbd
00000060: 45c8 e2bd 00c4 17bd 63eb 32be 9647 84bd
00000070: 66b6 813d bdb6 2b3e 6d46 893c 5c6b bcbe
00000080: 8f4f 59be 4602 f0bd ecd2 083e ebed 02bf
00000090: c109 283e 37a8 8a3d 1a96 ae3e 6c21 98bd
000000a0: 6754 2c3e 8398 3a3e db41 b4be c0ac ca3c
000000b0: 0979 95be 7ef5 5f3e 04a0 c33d bb06 a23e
000000c0: 3f2a 04be 5eab 1f3e 5d78 283e fb07 51be
000000d0: c1f2 9b3d d73b b0be c8ae 163d 7e99 0e3e
000000e0: d7ed 1abe ef2a cabb 67ef e2bd 90d5 5dbe
000000f0: 18b2 c0be 3f07 ce3d d9dd 62bd 2754 0bbd
00000100: 8199 8ebd db87 0b3e fe3e 993d 788c 0a3e
00000110: 26c9 223d 1720 fabb 6fc7 fabd efa3 043e
00000120: 086c 04bd afaf 833e 0317 8b3e c659 3e3c
00000130: a82b b43e a909 10bd 1040 cdbe e050 293e
00000140: 1393 db3d c045 c33e 0560 793d 68d8 8c3d
00000150: cf12 aabd 9f00 33be af56 8a3d a422 743e
00000160: bc3f c0bd c096 21bc 595c f83c 6541 57be
00000170: 2fe1 653e 6a63 01be 659c d6bc 5216 c8be
00000180: 9426 e4bd 6295 67bd 7f13 083e b383 4c3e
00000190: dd34 32be 2d9b b1be ad3a 5bbd 5234 bdbe
000001a0: fa1b d93d cace e1bd 67f7 b2bd a436 f63c
000001b0: e144 1d3e 32b4 1fbe 5e6a a53a 8c61 f03e
000001c0: 9a6b 093e 70f9 47be 5bb9 903e fa17 40be
000001d0: 3f39 f43d 9267 93be 11e8 85be 8e97 0c3d
000001e0: e5a0 3abd 14fe 7a3c c666 663d 0c10 f3be
000001f0: 6cda dbbc 28f7 993e 80df 943e b5cf 373e
00000200: 5bb1 8a3c 165d 873c 23fc 91bd 8389 8f3e
00000210: 9559 6e3e 0208 023e 34c5 34bd f0a6 8e3c
00000220: 625b aabe ada9 b43d 2656 dabc 9f43 e7be
00000230: 12c0 10be bd8d a33e 6d98 793d 58aa 97be
00000240: d9b4 07be 54da a7bc 901c 1fbc 68f4 bcbe
00000250: 0e64 f03d a9db ad3e e190 a4bd bdee a43e
00000260: 4ac4 6a3d 899a d63e 3ef5 043e 0a83 9f3e
00000270: 2ff1 693d 358a 17bc f006 d13d 34a1 c43e
00000280: d971 11be 4e7d 533d 32a9 34be 89d8 59bd
00000290: c565 75be 831d 4b3e 68e6 6b3d dad2 ac3e
000002a0: e15b 953d 4300 a03e ea90 113e b61e 2abe
000002b0: 21f5 8dbd deb3 773e a8cd 9f3e 7c7b 593e
000002c0: d06d e63d 5921 bd3e 47b9 c6bd 46f3 243d
000002d0: 4110 273d 116b bbbd 7c22 843e d6e3 5c3d
000002e0: 824e 173e ce1f a0bc 95b8 523d b773 80be
000002f0: 88b2 a43e e775 9fbd 960d 053e 432e cd3e
00000300: d9b9 bbbe 0625 a93c 6a49 4dbd b448 193e
00000310: d774 af3e 9b2c 6cbd 13e9 60be c290 3c3c
00000320: 4576 633c 7ba6 3dbe d78f ce3e 654b 6e3c
00000330: bb75 4dbe 1a5a 243e bb41 4e3b 433e 89be
00000340: 4efe 7bbe 3d1c 36bd e59e 3abd 8ea8 c03e
00000350: 90ff 59be 143a ee3b 0bcf 533d a307 5a3d
00000360: 0740 08be 7dfb ee3d 092f 25be 77dd 623e
00000370: 8c22 523e 7c0d a1be 1b4c 89be fe79 0b3e
00000380: eb19 8a3d ca07 61bd 7d46 a8be 43e8 b23c
00000390: 03f1 86bd 4104 c3bc b569 493d 3752 86be
000003a0: 4b14 04be 3a4c cb3d 694c b7be b015 d93d
000003b0: ce4f 4a3e dbb9 783d 35f4 433c 7aca b3be
000003c0: e9ae fdbd 5206 61be 5dfe b53c ab88 dc3e
000003d0: 8fa9 56be ebbe 61bc 3039 9dbd 592c fa3e
000003e0: 2345 343d f5a0 dbbe 4e86 cfbe cbb5 acbb
000003f0: a1cc 893e 9c34 513d 07d0 02b7 b77b 823e

layer1.bias f4 [256]
-0.34136188 -0.22375545 0.15221474 -0.1270305 -0.19266039 -0.3696244 -0.18531184 0.009189716
0.2991543 0.21663158 -0.13961434 -0.11584143 0.14506567 0.23958994 -0.24172461 0.35452124
0.3343086 0.39527273 -0.23314783 -0.27606207 -0.17068031 0.33232298 0.081968054 -0.41846925
-0.03529228 0.04954575 0.27404052 -0.17946386 0.14630798 0.40727013 0.28235286 0.0945411
-0.07023603 -0.38706118 -0.027751112 -0.013525812 -0.23135279 -0.2887584 -0.32765308 0.24121289
-0.49512482 -0.12818557 0.2661614 -0.46451667 0.10334365 0.18809615 -0.09654161 0.41335988
0.16829772 -0.33815226 0.532111 0.42435876 -0.26680237 0.05185729 -0.000799313 -0.49898538
-0.13946773 -0.091697626 0.17167735 0.2297119 0.041586276 0.4319828 -0.27198195 -0.48089087
-0.044129148 -0.21534221 -0.36587396 0.023401588 0.25153738 0.47854194 -0.18008251 0.24335787
0.14511949 0.360106 -0.45901653 -0.24393418 -0.4866824 -0.44741908 -0.05133231 -0.48669273
0.10075808 0.2294737 0.03915218 -0.3989002 -0.3874242 -0.005068225 -0.1729847 -0.53309923
-0.49012864 0.06732596 0.049399957 -0.31056422 -0.13718697 0.20268676 -0.25423676 -0.5389246
0.3529355 -0.10498548 -0.2930901 0.21297453 0.1779415 -0.41798148 0.03623527 0.26631927
0.29796118 -0.26521748 0.20925882 -0.09842591 0.007818601 -0.0629106 0.10780239 0.1342175
-0.013530406 0.3095192 0.08841422 0.22327211 0.03292635 0.26040727 -0.2612363 0.30116883
0.35298255 -0.45713726 0.22049609 -0.44928518 0.4070392 0.41720366 -0.32159963 -0.26454872
0.28132132 -0.33233905 0.34795758 0.1733761 0.022094686 0.41919962 -0.3748015 0.46529514
0.4500827 0.22117122 -0.55865395 0.24135147 -0.21160206 -0.0042018425 0.12507762 0.32121927
0.21136458 0.3644428 -0.34603834 -0.06480432 -0.36301365 0.028464692 0.12162991 -0.258957
-0.122482635 0.37177163 0.3480206 0.2332302 0.40633738 0.36782065 0.3588362 -0.062057097
0.3483189 -0.48769236 0.059666537 -0.30487505 0.13192311 -0.1280264 -0.27240044 0.028729912
-0.35905626 0.5006752 0.12927842 -0.069668464 -0.2374483 -0.21454743 0.24166478 0.10620567
0.47268412 -0.14013886 -0.15494242 0.32690206 -0.112203814 -0.12954748 0.11451824 0.22444852
0.563389 -0.22465089 0.2757466 -0.45101637 -0.2291167 0.1451118 0.04403717 0.3188328
-0.46006575 0.46398914 0.25213525 0.03736064 -0.1718683 -0.4119726 -0.07564411 0.30619138
-0.5434562 -0.29496557 0.526059 -0.18720938 -0.4900948 0.24830593 0.16434889 -0.072824396
0.2425806 0.1021733 -0.42721078 -0.09742802 -0.52122205 -0.07514344 0.52001786 0.3646828
-0.53393006 0.4906955 -0.5961799 -0.15015021 0.10267056 0.036428496 -0.30603987 0.22195055
-0.5463839 0.14278726 -0.40002614 0.5532566 -0.087472305 0.10580935 -0.20198177 0.22919908
0.1457667 -0.33036938 -0.20497993 0.3624315 -0.14576644 -0.12220365 -0.054148324 -0.47627255
0.30506417 -0.06812235 0.49157217 0.028303204 -0.44155955 -0.3781114 -0.093889475 0.11102077
-0.1268948 -0.096037 0.07214617 -0.3653575 0.50058985 0.5564545 0.12271216 0.17068253
00000000: fcc6 aebe 2620 65be 2ede 1b3e 4914 02be
00000010: c448 45be 693f bdbe 63c2 3dbe 7690 163c
00000020: c12a 993e abd4 5d3e 10f7 0ebe 463e edbd
00000030: 188c 143e 1157 753e a886 77be cf83 b53e
00000040: 7f2a ab3e 3061 ca3e 4ebe 6ebe 0258 8dbe
00000050: d2c6 2ebe 3d26 aa3e dede a73d 9a41 d6be
00000060: a38e 10bd 7cf0 4a3d 0a4f 8c3e 60c5 37be
00000070: c2d1 153e b685 d03e 8e90 903e c49e c13d
00000080: e8d7 8fbd e22c c6be 4d56 e3bc 5e9b 5dbc
00000090: bfe7 6cbe 24d8 93be 25c2 a7be 8300 773e
000000a0: 0081 fdbe 1443 03be 4f46 883e 21d5 edbe
000000b0: d6a5 d33d 479c 403e 9cb7 c5bd e8a3 d33e
000000c0: 3d56 2c3e 4b22 adbe 6d38 083f 8d45 d93e
000000d0: 529a 88be 4f68 543d fd88 51ba 037b ffbe
000000e0: a1d0 0ebe f7cb bbbd 30cc 2f3e 9939 6b3e
000000f0: 5f56 2a3d d92c dd3e 3841 8bbe 5437 f6be
00000100: c4c0 34bd ab82 5cbe d553 bbbe b0b4 bf3c
00000110: 82c9 803e 7303 f53e 8d67 38be ce32 793e
00000120: 349a 143e d05f b83e 3704 ebbe e2c9 79be
00000130: 6f2e f9be 1d14 e5be d441 52bd ca2f f9be
00000140: 415a ce3d 27fb 6a3e 095e 203d a63c ccbe
00000150: 775c c6be 5a13 a6bb e722 31be 3179 08bf
00000160: 24f2 fabe 31e2 893d 9c57 4a3d 4602 9fbe
00000170: be7a 0cbe 1e8d 4f3e 522b 82be f6f6 09bf
00000180: f6b3 b43e a102 d7bd e80f 96be ff15 5a3e
00000190: 4c36 363e ab01 d6be 6f6b 143d 005b 883e
000001a0: 5e8e 983e 96ca 87be f247 563e 8693 c9bd
000001b0: 9719 003c 46d7 80bd 80c7 dc3d 5070 093e
000001c0: a3ae 5dbc 4d79 9e3e 8412 b53d 72a1 643e
000001d0: c8dd 063d 1a54 853e c4c0 85be cd32 9a3e
000001e0: 21ba b43e e50d eabe bac9 613e b508 e6be
000001f0: 7167 d03e b89b d53e b5a8 a4be ee72 87be
00000200: 5909 903e 5828 aabe 7f27 b23e 8189 313e
00000210: eaff b43c 55a1 d63e fbe5 bfbe 2a3b ee3e
00000220: 3d71 e63e b57a 623e f203 0fbf d724 773e
00000230: 36ae 58be 9caf 89bb 5914 003e da76 a43e
00000240: f56f 583e 3f98 ba3e f02b b1be 21b8 84bd
00000250: eddc b9be c92e e93c 1a19 f93d 0396 84be
00000260: 2dd8 fabd da58 be3e c22f b23e e6d3 6e3e
00000270: 740b d03e fd52 bc3e 61b9 b73e 952f 7ebd
00000280: db56 b23e d0b2 f9be e664 743d 9518 9cbe
00000290: da16 073e 5a19 03be 1278 8bbe fe5a eb3c
000002a0: 39d6 b7be 402c 003f 9061 043e 57ae 8ebd
000002b0: a625 73be 52b2 5bbe f976 773e 5c82 d93d
000002c0: a703 f23e 9080 0fbe 3aa9 1ebe b55f a73e
000002d0: 1dcb e5bd 18a8 04be 8a88 ea3d d5d5 653e
000002e0: 433a 103f e20a 66be a92e 8d3e 9eeb e6be
000002f0: 919d 6abe 3098 143e 5260 343d 0e3e a33e
00000300: bd8d ebbe fc8f ed3e df17 813e 7807 193d
00000310: 3efe 2fbe 13ee d2be 4deb 9abd 1ec5 9c3e
00000320: f21f 0bbf ba05 97be cdab 063f d1b3 3fbe
00000330: b5ed fabe e943 7e3e 134b 283e f524 95bd
00000340: 0c67 783e 3c40 d13d 5fbb dabe 5788 c7bd
00000350: cf6e 05bf cee4 99bd e41f 053f b4b7 ba3e
00000360: a4af 08bf 713c fb3e 3f9f 18bf fac0 19be
00000370: f144 d23d 0c36 153d 42b1 9cbe 0147 633e
00000380: d1df 0bbf d336 123e 3ad0 ccbe 39a2 0d3f
00000390: ae24 b3bd 93b2 d83d 4fd4 4ebe 2ab3 6a3e
000003a0: de43 153e 2d26 a9be 42e6 51be 9f90 b93e
000003b0: cc43 15be e845 fabd a2ca 5dbd ffd9 f3be
000003c0: 5f31 9c3e bb83 8bbd 59af fb3e 1fdc e73c
000003d0: 1814 e2be d197 c1be 2049 c0bd dc5e e33d
000003e0: b6f0 01be 0caf c4bd 5fc1 933d 2310 bbbe
000003f0: a826 003f cd73 0e3f 8350 fb3d 67c7 2e3e

layer2.weight f4 [256, 256]
0.0077100163 -0.05886889 -0.00844887 0.011361069 -0.055140518 0.015603691 0.018708797 0.07442892
0.0022185424 0.043631487 0.009776257 -0.005380931 -0.06335723 -0.03259297 -0.002894262 0.03211759
0.08733493 -0.055371106 -0.04563483 -0.025311856 -0.022703268 0.019889459 -0.091253 -0.0011772842
-0.06047936 0.10265565 0.03800018 0.058240134 0.061491292 0.07723427 -0.0052910056 0.0035600055
-0.015347057 0.044108827 -0.036825817 -0.0074518756 -0.027804023 -0.03295408 -0.041044395 0.0044668685
0.043960772 -0.027303765 0.0075517786 -0.0017309793 0.0019483499 -0.000494668 -0.038585804 -0.07526876
0.0015191095 -0.01270983 -0.019841377 -0.05188545 0.08747405 -0.022573886 0.00940837 0.045930587
-0.0025553494 -0.008334728 -0.036795095 0.0575584 0.053673882 -0.0480577 -0.016498249 -0.004270243
0.029978128 -0.008434999 0.014861606 -0.058063984 -0.030212594 0.0326135 0.024911817 0.0013889304
0.06101995 0.0017034664 -0.020539949 -0.04635241 -0.044710055 -0.022857131 -0.038890466 0.08221925
-0.017545773 0.066521764 0.051609658 0.05611735 0.04831646 -0.025389604 -0.03949124 0.03931024
0.027919052 0.08544088 0.057942994 -0.01874518 -0.061690327 -0.055276144 0.018066086 -0.01480202
0.0068696854 -0.006251958 -0.041120365 -0.012269088 -0.06297414 -0.12018536 0.034025695 0.0037248184
0.031549886 0.026587032 -0.028024908 0.043227393 0.024864273 0.01073042 -0.006914089 -0.011546305
-0.06780072 -0.011030493 -0.031402387 -0.093172505 -0.0015037049 0.09659958 0.0028247386 0.031494554
-0.024449509 -0.04124304 -0.080219954 -0.0407655 0.004633057 -0.017231202 -0.0052636038 -0.0588066
-0.041555095 0.00012153987 0.025496695 -0.011407132 -0.012769252 -0.02846374 0.009761594 -0.038361706
0.016405031 -0.044003334 0.10455107 -0.06890161 -0.0388707 0.018085107 0.06878461 0.0059311567
0.0054121558 -0.0023688548 0.024761457 -0.052555867 0.0065932795 -0.03422126 0.00071093475 0.030806819
-0.0366374 0.076155595 -0.006037555 -0.04741431 0.047096256 -0.039522246 0.00684025 0.01961149
-0.017491363 0.036571402 -0.05864441 0.0569706 0.04153919 -0.038060058 -0.040467635 0.011004004
0.018335978 -0.0018312057 -0.011722969 0.0057671694 -0.06683251 -0.0053077294 0.06212114 -0.028694034
0.01902781 -0.018504055 0.051712062 -0.036958486 -0.014959905 0.059052553 -0.019760737 -0.0067340494
0.017972678 0.001615611 -0.007086261 0.008151704 -0.005677469 0.006109981 -0.030308386 -0.019669902
-0.0059227096 -0.033509716 -0.009455512 0.02115991 0.011282103 -0.0137541145 0.0016844042 -0.02404269
0.03996613 -0.012092529 -0.02289154 -0.07690905 -0.034645177 0.057494253 -0.01577847 0.0023480721
0.061315436 0.06664317 0.07852045 0.029699706 0.03383689 0.045725923 -0.0837603 -0.01807256
-0.009954343 -0.0063894843 -0.0791331 0.02492444 -0.00977482 0.060441554 -0.058342207 -0.031353313
-0.0080257645 -0.09444765 0.012209087 0.084758684 0.014295335 0.048941616 0.048091356 0.028530423
-0.02919789 0.11175773 -0.017389717 0.031347256 0.008177312 0.038605582 -0.053060155 -0.023894362
0.058649566 0.056529485 0.025957549 0.03404387 -0.003473802 0.010938368 0.024449505 -0.027019795
-0.020651676 0.01911064 -0.02123315 0.040530607 0.054662175 0.07371254 0.05687077 0.0006977595
00000000: 4ea4 fc3b 8120 71bd 216d 0abc c723 3a3c
00000010: 06db 61bd a0a6 7f3c 3143 993c 316e 983d
00000020: f764 113b eeb6 323d 982c 203c 8552 b0bb
00000030: 6fc1 81bd 3580 05bd a9ad 3dbb bc8d 033d
00000040: a8dc b23d d0cc 62bd 96eb 3abd cf5a cfbc
00000050: 34fc b9bc 38ef a23c dae2 babd 1a4f 9aba
00000060: 35b9 77bd 203d d23d 14a6 1b3d 358d 6e3d
00000070: 4bde 7b3d 002d 9e3d 2c60 adbb fb4e 693b
00000080: 3972 7bbc 75ab 343d abd6 16bd dd2e f4bb
00000090: 43c5 e3bc dbfa 06bd 2b1e 28bd cf5e 923b
000000a0: 3610 343d 25ac dfbc e974 f73b 07e2 e2ba
000000b0: c65f ff3a 9cac 01ba 260c 1ebd 8226 9abd
000000c0: db1c c73a e43c 50bc 628a a2bc d685 54bd
000000d0: 9825 b33d dfec b8bc 9025 1a3c b621 3c3d
000000e0: a677 27bb 628e 08bc 74b6 16bd 5bc2 6b3d
000000f0: 25d9 5b3d 27d8 44bd 5627 87bc 65ed 8bbb
00000100: b194 f53c f332 0abc 187e 733c 80d4 6dbd
00000110: 6780 f7bc bc95 053d de13 cc3c c50c b63a
00000120: 0ef0 793d d946 df3a 6543 a8bc 06dc 3dbd
00000130: e421 37bd e13e bbbc 9c4b 1fbd 9162 a83d
00000140: 27bc 8fbc 903c 883d a664 533d 4edb 653d
00000150: 7be7 453d dcfd cfbc 91c1 21bd c603 213d
00000160: 7fb6 e43c a1fb ae3d a255 6d3d 7e8f 99bc
00000170: ffae 7cbd 3d69 62bd 54ff 933c 2c84 72bc
00000180: 191b e13b 3add ccbb d46d 28bd 4904 49bc
00000190: 96f8 80bd be23 f6bd 875e 0b3d 151c 743b
000001a0: 743a 013d 0ccd d93c 7e94 e5bc 350f 313d
000001b0: 29b0 cb3c a5ce 2f3c 958f e2bb b72c 3dbc
000001c0: 1bdb 8abd 3eb9 34bc ca9f 00bd 3ad1 bebd
000001d0: f717 c5ba 00d6 c53d 401f 393b 6f00 013d
000001e0: 564a c8bc 76ee 28bd 5c4a a4bd baf9 26bd
000001f0: e6d0 973b 7328 8dbc 4f7a acbb 30df 70bd
00000200: ad35 2abd 39e3 fe38 72de d03c fbe4 3abc
00000210: 2036 51bc ca2c e9bc 18ef 1f3c 2a21 1dbd
00000220: d863 863c d73c 34bd df1e d63d 4a1c 8dbd
00000230: e236 1fbd 3827 943c f2de 8c3d 265a c23b
00000240: 7458 b13b ca3e 1bbb 8ad8 ca3c d244 57bd
00000250: 700c d83b 982b 0cbd 065e 3a3a 955e fc3c
00000260: 1911 16bd 77f7 9b3d afd6 c5bb 8235 42bd
00000270: 01e8 403d 14e2 21bd 2d24 e03b 47a8 a03c
00000280: 0c4a 8fbc e5cb 153d 1f35 70bd 015a 693d
00000290: ff24 2a3d dde4 1bbd 64c1 25bd 234a 343c
000002a0: 5535 963c 1105 f0ba b211 40bc 86fa bc3b
000002b0: 7cdf 88bd 76ec adbb bd72 7e3d c00f ebbc
000002c0: 36e0 9b3c d195 97bc 07d0 533d c861 17bd
000002d0: 641a 75bc 17e1 713d 45e1 a1bc 4da9 dcbb
000002e0: 703b 933c e9c2 d33a de33 e8bb ba8e 053c
000002f0: 100a babb 3c36 c83b 4b49 f8bc c622 a1bc
00000300: 4a13 c2bb 7c41 09bd 4beb 1abc 8c57 ad3c
00000310: 92d8 383c f058 61bc 3ac7 dc3a 2df5 c4bc
00000320: 86b3 233d be1f 46bc 0a87 bbbc 7e82 9dbd
00000330: 1ae8 0dbd 187f 6b3d da41 81bc 1de2 193b
00000340: e525 7b3d 377c 883d 54cf a03d cc4c f33c
00000350: 8d98 0a3d 1b4b 3b3d 858a abbd e80c 94bc
00000360: 8a17 23bc e15e d1bb 8910 a2bd 572e cc3c
00000370: 9126 20bc 9091 773d 3df8 6ebd 556c 00bd
00000380: 7f7e 03bc c56d c1bd 9f08 483c f695 ad3d
00000390: fb36 6a3c 0177 483d 71fb 443d a2b8 e93c
000003a0: 6a30 efbc 3de1 e43d e174 8ebc fb65 003d
000003b0: 22fa 053c e320 1e3d 9b55 59bd 1cbe c3bc
000003c0: 873a 703d 768b 673d eda4 d43c 9671 0b3d
000003d0: baa8 63bb d736 333c 544a c83c 9e58 ddbc
000003e0: b42d a9bc eb8d 9c3c 25f1 adbc 6c03 263d
000003f0: 72e5 5f3d 9af6 963d 53f1 683d d9e9 363a

layer2.bias f4 [256]
-0.070149 0.0069808504 0.057450082 0.04862207 -0.1671835 -0.091237985 0.18254523 -0.097187966
0.032471813 0.29078686 -0.09302161 0.11767394 0.048631188 -0.19349489 0.045402054 -0.04143914
-0.008670378 0.24673717 -0.10721622 -0.008283537 0.029598868 -0.18251878 -0.14729786 -0.12341606
0.18374592 -0.025915038 -0.0036990978 -0.07132219 0.00403948 0.0381555 -0.0915568 -0.21184383
0.16437511 0.23382726 -0.1653438 0.013552432 0.008669924 -0.0609565 0.20744689 -0.06304954
-0.23623593 0.17878087 -0.1262864 0.13232127 0.07090004 0.2931958 0.08267846 0.17233887
0.1722336 -0.053749755 -0.056723725 0.109447435 0.10023436 0.13564256 -0.11244687 0.084416956
-0.12047587 0.062608615 0.07572343 0.12021691 -0.060223892 0.16877657 -0.2744901 -0.22009355
-0.07603481 0.021262618 -0.11350598 0.17347501 -0.009929787 0.106871374 -0.29633358 0.24085289
-0.13743015 -0.051241472 -0.043238465 -0.005367247 0.12092886 -0.0031099701 -0.16731761 -0.24815898
0.051500466 0.20447282 -0.07037162 -0.018060382 0.0662688 0.10626305 -0.00803905 0.020161675
-0.008212112 -0.035702363 0.023978053 0.012170912 -0.084375225 0.0022907576 0.124062434 -0.29719707
0.1930347 0.21687855 0.019967524 0.17184214 0.13927448 -0.16945085 0.1346449 0.22565916
0.15001537 -0.18452105 0.14086325 -0.19747844 0.062849775 -0.29485083 0.053936 -0.06359032
-0.20298065 -0.14502834 -0.008923746 0.17322765 -0.17806783 -0.11875456 0.123131156 0.15716004
0.15613838 -0.11577474 -0.0011748663 -0.057582095 0.17978661 -0.039861124 0.00068342534 -0.18146376
0.07408021 -0.097038485 0.07416824 -0.032898605 0.05473318 0.054832175 -0.123034514 -0.027217574
0.051099196 0.008431342 0.048785113 0.22923553 0.039931025 0.18966244 0.12163682 -0.1800956
0.039785475 0.3159029 -0.037017386 0.16188967 -0.32791072 0.110510826 0.28306004 -0.0009713396
-0.18337674 0.05324854 0.023085762 0.15967338 0.24560894 0.18617105 0.030682437 -0.044649508
-0.08381733 0.18522158 0.12108899 -0.19325447 0.030900043 -0.054511096 0.064174436 0.062875144
0.08679286 0.15696336 0.1942466 -0.2043619 -0.066088006 0.050767202 -0.03225605 0.21032473
0.12656906 0.16116142 -0.21853483 0.13525522 -0.11867559 0.0769569 0.06338283 0.063296534
0.07883812 -0.061781723 0.11948587 -0.10571517 -0.09652306 0.07752723 -0.09129297 0.013266692
-0.021802213 -0.058522433 0.055654716 0.1976528 -0.051807407 0.04428922 0.17580211 0.16353688
-0.07629373 0.23622207 0.21055636 0.1305006 -0.10427575 -0.047142383 -0.08270845 0.011785179
-0.18541645 -0.051687907 -0.24766143 0.12635241 0.025517862 -0.09080688 0.17774875 0.16356666
-0.18275422 -0.06926999 -0.086447425 -0.16902582 -0.04443166 0.069593586 -0.11651282 0.114640415
-0.08399763 0.040531665 -0.15405291 0.11468672 0.030249452 -0.028968563 -0.03688726 0.12965104
0.15386945 -0.09065687 -0.0687348 0.18847014 -0.07946847 -0.276084 -0.1272496 -0.026991064
-0.1633002 0.08854554 -0.10951447 0.048215427 0.044257063 -0.10361637 0.10376672 -0.008549278
0.06411584 -0.025041457 -0.17965998 -0.26801476 -0.08428502 -0.1928551 0.24227071 0.02858731
00000000: 47aa 8fbd 9ebf e43b c750 6b3d f027 473d
00000010: 2732 2bbe fbda babd 23ed 3a3e 7c0a c7bd
00000020: 2a01 053d 04e2 943e 1d82 bebd 09ff f03d
00000030: 7f31 473d 8623 46be 81f7 393d 16bc 29bd
00000040: 330e 0ebc aba8 7c3e 2d94 dbbd acb7 07bc
00000050: 5379 f23c 34e6 3abe 40d5 16be 8fc1 fcbd
00000060: e427 3c3e c64b d4bc 906c 72bb 5e11 92bd
00000070: 9d5d 843b f148 1c3d 2282 bbbd 97ed 58be
00000080: f351 283e 6a70 6f3e e34f 29be 050b 5e3c
00000090: 4c0c 0e3c 86ad 79bd f56c 543e 1e20 81bd
000000a0: d5e7 71be 5512 373e 3951 01be 3a7f 073e
000000b0: 0a34 913d c31d 963e 5353 a93d 9a79 303e
000000c0: 015e 303e b428 5cbd 2357 68bd fa25 e03d
000000d0: ac47 cd3d e2e5 0a3e 8b4a e6bd cce2 ac3d
000000e0: 0ebc f6bd f238 803d e314 9b3d 4934 f63d
000000f0: 54ad 76bd c4d3 2c3e f789 8cbe 3460 61be
00000100: 23b8 9bbd f12e ae3c d375 e8bd 6fa3 313e
00000110: 8cb0 22bc 61df da3d 09b9 97be 24a2 763e
00000120: 7dba 0cbe 94e2 51bd d11a 31bd bbdf afbb
00000130: 8da9 f73d a4d0 4bbb 4f55 2bbe 631d 7ebe
00000140: 27f2 523d 5361 513e ff1e 90bd 5ef3 93bc
00000150: f0b7 873d 71a0 d93d 38b6 03bc 192a a53c
00000160: 188c 06bc a43c 12bd 9f6d c43c 8168 473c
00000170: ebcc acbd 8920 163b 7214 fe3d 372a 98be
00000180: e3aa 453e 6915 5e3e ef92 a33c 63f7 2f3e
00000190: f89d 0e3e 8684 2dbe 5ae0 093e 3213 673e
000001a0: a19d 193e 16f3 3cbe 753e 103e ca37 4abe
000001b0: 62b7 803d b0f6 96be ffeb 5c3d a43b 82bd
000001c0: 29da 4fbe 4f82 14be e734 12bc 9762 313e
000001d0: 6a57 36be 9735 f3bd 302c fc3d 90ee 203e
000001e0: bde2 1f3e 4f1b edbd f9fd 99ba 34db 6bbd
000001f0: fb19 383e 6b45 23bd e627 333a a3d1 39be
00000200: 5db7 973d 1dbc c6bd 85e5 973d b0c0 06bd
00000210: e62f 603d b497 603d 85f9 fbbd 64f7 debc
00000220: 644d 513d 9d23 0a3c e6d2 473d b8bc 6a3e
00000230: b78e 233d df36 423e ba1c f93d fb6a 38be
00000240: 18f6 223d 06be a13e 8b9f 17bd 68c6 253e
00000250: eae3 a7be 8053 e23d 3fed 903e 7fa1 7eba
00000260: 1dc7 3bbe 241b 5a3d 5a1e bd3c 6b81 233e
00000270: e980 7b3e a0a3 3e3e bc59 fb3c 67e2 36bd
00000280: 6ca8 abbd baaa 3d3e 81fd f73d 80e4 45be
00000290: 1622 fd3c 0747 5fbd e36d 833d afc4 803d
000002a0: 74c0 b13d 01bb 203e 95e8 463e 3f44 51be
000002b0: 2659 87bd 45f1 4f3d eb1e 04bd 5e5f 573e
000002c0: 529b 013e 8007 253e 98c7 5fbe 5880 0a3e
000002d0: 300c f3bd 949b 9d3d dbce 813d 9da1 813d
000002e0: e175 a13d d50e 7dbd 02b5 f43d 3281 d8bd
000002f0: e2ad c5bd 99c6 9e3d cff7 babd 8a5c 593c
00000300: 8e9a b2bc 38b5 6fbd 33f6 633d 7f65 4a3e
00000310: 0134 54bd 9d68 353d 7805 343e 3676 273e
00000320: e33f 9cbd 33e4 713e 169c 573e f3a1 053e
00000330: 868e d5bd 5f18 41bd 0c63 a9bd a016 413c
00000340: cfdd 3dbe b3b6 53bd f59a 7dbe 8762 013e
00000350: d60a d13c f5f8 b9bd c503 363e 057e 273e
00000360: ec23 3bbe 6ddd 8dbd 590b b1bd 1b15 2dbe
00000370: f9fd 35bd 1587 8e3d 469e eebd 98c8 ea3d
00000380: f306 acbd 8804 263d 0cc0 1dbe dfe0 ea3d
00000390: b3cd f73c 7b4f edbc 1817 17bd 3ec3 043e
000003a0: f48f 1d3e 4faa b9bd d5c4 8cbd 51fe 403e
000003b0: 5dc0 a2bd e25a 8dbe b84d 02be 5d1c ddbc
000003c0: 2b38 27be 5d57 b53d 1f49 e0bd 8a7d 453d
000003d0: e546 353d d234 d4bd a583 d43d 4512 0cbc
000003e0: 2a4f 833d be23 cdbc c9f8 37be 3b39 89be
000003f0: a09d acbd cf7b 45be d015 783e ef2f ea3c

layer2_input.weight f4 [256, 2]
0.12805906 -0.23224123 0.11214013 0.027657555 -0.18001708 -0.0028952637 0.19751547 0.04069054
-0.034084998 -0.14446189 -0.12123206 0.21976213 0.09152923 0.00052228215 -0.26918745 0.27656266
0.029344555 -0.47637847 0.3229651 -0.24956144 -0.13324125 0.29858336 0.06815953 -0.003172053
-0.026623422 0.030647209 -0.1629502 -0.022681069 0.19522777 0.07128598 -0.013135692 -0.24553281
0.036670275 0.020578843 0.2401345 -0.48988587 -0.019090652 -0.07516279 0.20734468 -0.179413
-0.15639286 0.091030024 -0.16049367 -0.043450605 -0.31195366 0.2470896 -0.20185508 0.27484015
0.06092079 0.14568324 -0.1595064 -0.06571543 -0.068344906 -0.33055484 -0.10687155 -0.007701613
-0.04022607 0.06651231 0.17690472 0.06723826 -0.13080597 0.12217006 -0.18690011 0.022042647
0.03299749 0.026606986 0.29697293 -0.059691872 -0.074057005 -0.05924271 0.02079217 0.090962484
-0.008811755 0.2948045 -0.21498288 -0.021618657 0.09225387 -0.076867044 -0.2204663 0.22749756
-0.15977152 0.27419066 0.019123953 0.03367136 -0.10723635 -0.17089163 0.1695199 -0.048053622
0.13093576 0.050069805 0.15739438 -0.22152442 0.025666539 -0.082433045 0.2639029 -0.76832694
-0.06908711 -0.047571182 0.03206081 0.10332218 -0.19003955 -0.048245877 0.17000657 -0.39341474
-0.044322062 0.527621 0.17374545 0.052968252 -0.0756217 -0.29059586 0.27796224 0.4613786
0.06774602 -0.3350016 0.2639355 -0.023734102 0.13328129 -0.49920008 -0.032268208 0.11715014
-0.22911753 -0.03382337 -0.039427985 -0.21983448 -0.34090066 0.32750952 -0.22645557 0.060147353
-0.16081685 -0.010983191 0.035574153 0.4885251 -0.12433159 -0.051760748 0.2193415 0.021601375
-0.21551242 0.14735721 0.17321423 -0.6056073 -0.29614502 0.4152444 0.32809886 -0.14248225
-0.3266275 0.029375993 -0.02735738 -0.33301738 -0.088501215 0.5424284 -0.24643317 0.4542024
0.14676777 0.39013684 0.0373917 0.15181074 -0.14113474 -0.08454658 -0.30864742 0.45502096
0.10317127 0.024150202 0.063068874 -0.017158223 -0.20132905 0.118833534 -0.010386767 0.32153365
0.020225313 0.61138207 0.18484986 -0.21944466 -0.118704736 0.37240613 0.08161661 0.07270344
0.06974996 0.14646819 0.019639565 0.025846979 0.10486604 -0.028113848 0.13185927 -0.121188834
0.10838487 0.004280458 0.13337015 -0.4132489 0.27563688 0.053749774 -0.22713369 0.3667732
0.17815465 0.08848844 0.014169949 0.18400541 0.12776192 -0.08112682 0.06865364 -0.18480448
0.20205146 -0.14969204 0.042414583 -0.15406038 0.031925905 0.17624535 0.34865016 -0.18306279
-0.0870233 0.02407822 -0.10155263 0.20768109 0.061681107 0.0069718286 -0.0928115 -0.029860428
0.20901945 0.09017661 -0.32033715 0.28527594 0.020769576 -0.5056485 -0.0433669 0.068627745
-0.15497671 -0.091474965 -0.24738564 0.01942158 -0.14938474 0.021920737 -0.07312195 -0.11553642
-0.2900788 0.06379946 -0.3617988 0.05961283 0.08834483 0.06881832 0.30737802 -0.63350827
0.21965863 -0.23391044 -0.20809712 0.23625876 -0.065296814 0.048913248 0.13723487 0.09175988
0.10951683 -0.44180617 -0.06684416 0.033589367 -0.04922294 0.086924925 -0.065570146 0.03506699
00000000: ea21 033e a5d0 6dbe b9a9 e53d 1992 e23c
00000010: 6656 38be 77be 3dbb 7f41 4a3e 20ab 263d
00000020: b69c 0bbd d1ed 13be 8448 f8bd 5309 613e
00000030: ad73 bb3d c3e9 083a f0d2 89be 9f99 8d3e
00000040: fe63 f03c e1e7 f3be ae5b a53e 098d 7fbe
00000050: 6570 08be ebdf 983e 3997 8b3d 38e2 4fbb
00000060: 5d19 dabc db0f fb3c 6bdc 26be a6cd b9bc
00000070: cae9 473e 62fe 913d 1637 57bc f46c 7bbe
00000080: 9233 163d f694 a83c d2e5 753e 52d2 fabe
00000090: 0064 9cbc f3ee 99bd 2a52 543e 0bb8 37be
000000a0: 7325 20be f36d ba3d 7458 24be 43f9 31bd
000000b0: 64b8 9fbe 0e05 7d3e 19b3 4ebe d9b7 8c3e
000000c0: 1488 793d fd2d 153e a555 23be d095 86bd
000000d0: 6af8 8bbd 7c3e a9be 79df dabd d05d fcbb
000000e0: 17c4 24bd 9b37 883d 8326 353e 36b4 893d
000000f0: 00f2 05be 4c34 fa3d be62 3fbe c892 b43c
00000100: 6028 073d e5f6 d93c d60c 983e 777f 74bd
00000110: 33ab 97bd 7ca8 72bd 5754 aa3c 8a4a ba3d
00000120: 2e5f 10bc 9ef0 963e 7924 5cbe 9c19 b1bc
00000130: 99ef bc3d 786c 9dbd ebc1 61be 1ff5 683e
00000140: 259b 23be b862 8c3e d6a9 9c3c fbea 093d
00000150: bb9e dbbd 37fe 2ebe a096 2d3e e0d3 44bd
00000160: 0614 063e ff15 4d3d fe2b 213e 4cd7 62be
00000170: a242 d23c a8d2 a8bd 481e 873e 13b1 44bf
00000180: 8b7d 8dbd 00da 42bd 3252 033d 949a d33d
00000190: ba99 42be 789d 45bd 3416 2e3e a86d c9be
000001a0: 0d8b 35bd 2b12 073f 54ea 313e 3df5 583d
000001b0: 8ddf 9abd fbc8 94be 1151 8e3e d139 ec3e
000001c0: 6dbe 8a3d 5485 abbe 8e22 873e 056e c2bc
000001d0: e47a 083e 2797 ffbe ab2b 04bd 6aec ef3d
000001e0: c99d 6abe 608a 0abd 3d7f 21bd 4a1c 61be
000001f0: 888a aebe 54af a73e f8e3 67be 125d 763d
00000200: 2cad 24be d8f2 33bc 34b6 113d f61f fa3e
00000210: 90a1 febd 1403 54bd 0f9b 603e 5ef5 b03c
00000220: 4aaf 5cbe cfe4 163e 125f 313e 1409 1bbf
00000230: 52a0 97be ea9a d43e 93fc a73e dee6 11be
00000240: b83b a7be eca5 f03c 961c e0bc 4181 aabe
00000250: 2040 b5bd 96dc 0a3f fa58 7cbe 388d e83e
00000260: 4a4a 163e 04c0 c73e 0a28 193d 4674 1b3e
00000270: a085 10be c226 adbd 0907 9ebe 82f8 e83e
00000280: 754b d33d a5d6 c53c 412a 813d 678f 8cbc
00000290: 3429 4ebe ff5e f33d 422d 2abc 0fa0 a43e
000002a0: 8eaf a53c 8983 1c3f 4849 3d3e 1ab6 60be
000002b0: 781b f3bd 04ac be3e 9c26 a73d 8be5 943d
000002c0: 11d9 8e3d c2fb 153e 27e3 a03c 0bbd d33c
000002d0: 02c4 d63d 034f e6bc 1e06 073e da31 f8bd
000002e0: e3f8 dd3d 1643 8c3b 2f92 083e 5c95 d3be
000002f0: 4720 8d3e b928 5c3d bc95 68be b2c9 bb3e
00000300: 2c6e 363e 6d39 b53d 1329 683c ea6b 3c3e
00000310: 05d4 023e d125 a6bd 489a 8c3d 633d 3dbe
00000320: 94e6 4e3e df48 19be eaba 2d3d 01c2 1dbe
00000330: bdc4 023d a979 343e 4682 b23e d074 3bbe
00000340: 4639 b2bd b03f c53c d3fa cfbd 5aaa 543e
00000350: 54a5 7c3d f073 e43b f513 bebd db9d f4bc
00000360: 3209 563e 84ae b83d 3b03 a4be b00f 923e
00000370: f524 aa3c 2e72 01bf 7ea1 31bd b48c 8c3d
00000380: 37b2 1ebe 3a57 bbbd a952 7dbe 011a 9f3c
00000390: 50f8 18be 1e93 b33c f6c0 95bd 5c9e ecbd
000003a0: 3585 94be 4ba9 823d b13d b9be 952c 743d
000003b0: 22ee b43d 9ff0 8c3d a760 9d3e 992d 22bf
000003c0: 31ee 603e 3886 6fbe 6917 55be d1ed 713e
000003d0: 56ba 85bd 4259 483d 4c87 0c3e 9bec bb3d
000003e0: 5c4a e03d 6b34 e2be 97e5 88bd 0195 093d
000003f0: fe9d 49bd b205 b23d a449 86bd 67a2 0f3d

layer2_input.bias f4 [256]
0.2012036 -0.15373872 0.10780759 -0.2866914 0.3682026 -0.016176479 -0.29751277 0.10324925
0.40187976 -0.35023773 -0.060150396 -0.19238868 -0.04121032 0.39016703 -0.31331766 0.2172078
-0.0674128 -0.2399962 0.22169197 0.0038159012 -0.045854513 0.3866667 0.21645425 0.086959206
-0.3892587 0.24188876 0.37817433 0.19607958 -0.04290527 -0.6866114 0.10729251 0.36829004
-0.23182906 -0.22810647 0.3065967 -0.1310292 -0.29662168 0.31220526 -0.22104222 0.035835177
0.17747334 -0.23519294 0.40544406 0.53592104 -0.26639584 -0.23627548 -0.014982251 0.23376073
-0.056172024 -0.07034157 0.25026524 0.07394196 0.42738 -0.36017588 0.4967774 -0.5619065
0.56900084 -0.30703592 0.29970288 -0.22785638 0.32154173 -0.31562698 0.3572486 0.40905052
0.23450087 -0.537276 0.3022531 -0.4126438 0.06415003 0.19819862 0.21834874 -0.4589091
0.42653537 0.5617445 -0.37494326 -0.19635084 -0.5276024 -0.1960689 0.4188616 0.22034486
-0.18663642 -0.2659997 0.18683288 -0.26475298 -0.6659597 -0.078969665 -0.25713527 -0.16408676
-0.14961366 -0.006731146 -0.1023933 0.015195242 -0.027074162 0.2656356 -0.4615736 0.28753123
-0.4780058 -0.43650866 -0.048498236 -0.24966063 -0.20987202 0.3073523 -0.35293308 -0.4104517
-0.11189686 -0.47167817 -0.22605649 0.33999723 -0.3714232 0.34729385 0.4275847 0.040718924
0.45933998 0.3698367 0.13699098 0.011475736 0.40413862 0.41480064 -0.28775886 0.09631593
-0.15474868 0.22962613 0.010400796 0.4428536 -0.48051453 0.0589651 -0.04307094 0.21879569
-0.108887315 -0.07885817 0.21234614 0.4250704 -0.28371578 -0.08875162 0.15490086 0.23724341
-0.05002288 0.11443038 -0.46706656 -0.116791956 -0.43040803 -0.4120032 -0.40739366 0.37703577
-0.36144292 -0.07121711 -0.044449702 -0.38726097 0.27417338 -0.21934272 -0.40657493 -0.47002357
0.191065 0.14474879 0.40135837 -0.39674458 -0.036485042 -0.37718216 -0.2791966 -0.004449605
-0.046773307 -0.15290028 0.16701594 0.3208834 0.19199999 -0.31269348 -0.48921493 -0.17006348
-0.2351084 0.66128427 -0.47249922 0.4024493 0.2571819 -0.15474181 0.39929143 -0.3422241
0.20739876 -0.34819365 0.3747133 0.775215 0.23490863 -0.15434867 -0.3357933 -0.19629207
-0.33388224 -0.07598376 0.071304455 -0.25840792 0.16236192 -0.14281909 -0.062287457 0.058143083
-0.23330022 0.085498065 0.2105926 -0.36684924 0.21226552 -0.49017453 -0.48548558 -0.40675387
-0.28163272 -0.41058624 -0.15513931 -0.2134968 -0.039083734 -0.13205874 0.43175304 -0.37366897
0.39882886 0.478818 0.4970176 -0.4675052 -0.51515806 0.07015805 -0.5540611 -0.058093138
0.0009999882 0.42940652 0.044117145 0.29086837 0.27540505 0.45149887 -0.023499262 -0.38819838
-0.047102336 0.6823908 -0.27047142 -0.56598413 -0.061934005 0.13545157 0.29203245 0.2015132
-0.08006789 0.3405447 -0.10306849 -0.031789284 0.13133183 0.2128305 0.44348732 -0.119311556
0.49623215 -0.16869174 -0.72599155 -0.36568147 -0.42068842 0.34250784 -0.34432948 0.24827269
0.04206108 -0.14196116 0.46261704 0.25822645 0.109458186 0.53633493 -0.23928422 -0.21411422
00000000: 5108 4e3e af6d 1dbe 3aca dc3d 37c9 92be
00000010: 0d85 bc3e 8984 84bc 9853 98be 5874 d33d
00000020: 2fc3 cd3e 5c52 b3be 4360 76bd 8a01 45be
00000030: 27cc 28bd f9c3 c73e 2c6b a0be b96b 5e3e
00000040: b90f 8abd 90c1 75be 3803 633e 3314 7a3b
00000050: f1d1 3bbd 2df9 c53e 2fa6 5d3e ab17 b23d
00000060: eb4c c7be b0b1 773e 11a0 c13e 16c9 483e
00000070: 70bd 2fbd c4c5 2fbf 2dbc db3d 8390 bc3e
00000080: 9964 6dbe be94 69be 3efa 9c3e 852c 06be
00000090: ccde 97be 5ed9 9f3e e458 62be e8c7 123d
000000a0: 92bb 353e 6bd6 70be 5d96 cf3e 1f32 093f
000000b0: 0965 88be 33f2 71be 1e78 75bc f95e 6f3e
000000c0: a314 66bd 3e0f 90bd c422 803e e26e 973d
000000d0: 8dd1 da3e f968 b8be 9b59 fe3e 1bd9 0fbf
000000e0: 0aaa 113f d033 9dbe a872 993e 2f53 69be
000000f0: 1ea1 a43e dc99 a1be 4ae9 b63e 126f d13e
00000100: ff20 703e ec8a 09bf ebc0 9a3e 0c46 d3be
00000110: 1761 833d 94f4 4a3e d096 5f3e 22f6 eabe
00000120: d862 da3e 7dce 0f3f 90f8 bfbe 3210 49be
00000130: f310 07bf 49c6 48be 0775 d63e 15a2 613e
00000140: 9e1d 3fbe 1d31 88be 1e51 3f3e b48d 87be
00000150: 567c 2abf d9ba a1bd 3ca7 83be 5c06 28be
00000160: 5334 19be f290 dcbb 94b3 d1bd 77f5 783c
00000170: a2ca ddbc 6401 883e 6053 ecbe 4b37 933e
00000180: 2dbd f4be 107e dfbe 16a6 46bd 09a7 7fbe
00000190: b1e8 56be 485d 9d3e a5b3 b4be ba26 d2be
000001a0: 2e2a e5bd cd7f f1be 5a7b 67be 1e14 ae3e
000001b0: 2f2b bebe 80d0 b13e 62ec da3e e3c8 263d
000001c0: 9c2e eb3e 3c5b bd3e 5d47 0c3e ba04 3c3c
000001d0: 42eb ce3e c060 d43e 2155 93be 4941 c53d
000001e0: 7076 1ebe 1d23 6b3e 1a68 2a3c b5bd e23e
000001f0: 0006 f6be 6485 713d 276b 30bd fa0b 603e
00000200: 5000 dfbd 6480 a1bd 4471 593e d4a2 d93e
00000210: 3243 91be 69c3 b5bd 559e 1e3e f0ef 723e
00000220: cbe4 4cbd 7a5a ea3d 5923 efbe 9f30 efbd
00000230: 715e dcbe 15f2 d2be e795 d0be d50a c13e
00000240: 0c0f b9be 47da 91bd e410 36bd 1247 c6be
00000250: 7460 8c3e 619b 60be 972a d0be eea6 f0be
00000260: 8ba6 433e 0739 143e d87e cd3e 1b22 cbbe
00000270: 5771 15bd 051e c1be dbf2 8ebe fecd 91bb
00000280: 5e95 3fbd e491 1cbe 3a06 2b3e d44a a43e
00000290: a59b 443e 5c19 a0be 617a fabe 1f25 2ebe
000002a0: 42c0 70be ed49 293f 6beb f1be d60d ce3e
000002b0: 59ad 833e a374 1ebe ed6f cc3e ff37 afbe
000002c0: 5760 543e 7046 b2be 6cda bf3e 7e74 463f
000002d0: e38b 703e 940d 1ebe 19ed abbe ca00 49be
000002e0: 9df2 aabe 609d 9bbd 1208 923d 0b4e 84be
000002f0: 3442 263e 2b3f 12be 2221 7fbd 7127 6e3d
00000300: 41e6 6ebe 9c19 af3d 96a5 573e aad3 bbbe
00000310: 225c 593e 28f8 fabe 9191 f8be 0b42 d0be
00000320: 2a32 90be 5c38 d2be d7dc 1ebe e89e 5abe
00000330: 4416 20bd 683a 07be bc0e dd3e 8a51 bfbe
00000340: 4c33 cc3e a227 f53e 1779 fe3e d75c efbe
00000350: 66e1 03bf 06af 8f3d f3d6 0dbf 12f3 6dbd
00000360: 0912 833a 2cdb db3e 2eb4 343d b3ec 943e
00000370: e401 8d3e dc2a e73e 8681 c0bc f0c1 c6be
00000380: 61ee 40bd 2ab1 2e3f 3b7b 8abe 56e4 10bf
00000390: 83ae 7dbd d1b3 0a3e 4785 953e 7a59 4e3e
000003a0: a2fa a3bd e05b ae3e 9315 d3bd 7b35 02bd
000003b0: da7b 063e 3df0 593e c510 e33e 9e59 f4bd
000003c0: 2412 fe3e 87bd 2cbe 95da 39bf 9a3a bbbe
000003d0: 7964 d7be 305d af3e f44b b0be 323b 7e3e
000003e0: 3d48 2c3d 445e 11be 24dc ec3e 4236 843e
000003f0: 9d2b e03d 3f4d 093f ec06 75be c240 5bbe

layer3.weight f4 [256, 256]
0.04397137 -0.106087446 -0.19256452 -0.0333898 0.055656508 0.1779193 -0.035351172 -0.019860573
0.030941935 -0.18883452 0.16228063 -0.16467291 -0.08053938 -0.22321938 0.23640794 0.07602571
-0.07062174 0.03904961 -0.312453 0.13584165 0.09583579 -0.1519003 -0.14548789 0.09393597
0.20812628 -0.15910833 0.21036915 0.13714351 -0.07431592 -0.10573964 0.1678433 0.2484954
0.12330381 -0.016728202 0.19241841 0.0825947 -0.25156787 -0.30227992 -0.0627728 -0.18812779
-0.004397497 0.04008356 0.13013332 -0.13175897 -0.22432755 -0.08153054 0.07248084 -0.11286623
-0.11448184 -0.09022231 0.049448118 -0.028250635 -0.15556043 0.17408225 0.08752405 0.12545232
-0.087319225 -0.182357 0.08437666 -0.13222681 -0.33265394 0.04577136 -0.09424111 -0.19983894
-0.051669393 0.24279603 0.03989963 0.11317653 -0.11969622 -0.05465995 0.14638875 -0.13573883
0.06433163 -0.0816985 0.08771038 0.027309401 0.017931988 0.041319843 0.07861621 -0.017847795
-0.216147 0.18922515 -0.037826896 0.16367534 -0.15305623 0.07941978 -0.0015765196 -0.056960106
-0.005735144 -0.25638312 0.21156424 -0.02430281 -0.1691422 -0.15244 0.046999905 0.06910327
0.12127368 0.20054708 -0.086950704 0.12356606 -0.008790299 0.08614522 -0.15511732 -0.10736206
0.07180763 0.18214789 0.24437211 -0.20124838 0.08753738 -0.06363749 0.14869204 -0.29515246
-0.019793386 0.28331694 0.0012296104 0.019558024 0.20956239 -0.15592839 -0.13310277 -0.02791836
0.11131858 -0.07249198 -0.15356675 0.009591727 0.115781076 -0.0661471 -0.13803396 -0.13304369
-0.09683601 -0.11939063 -0.17105061 -0.1274754 0.03736492 0.21241926 -0.13375685 0.05063899
0.2679405 -0.09528001 0.022513209 0.01875701 0.014103221 -0.08258677 0.23721649 -0.036159318
-0.12521653 0.02806065 0.14379987 0.30863747 -0.097275816 0.01202586 -0.021378227 0.040341303
-0.022371603 0.1176186 0.12166412 -0.0468438 0.124401286 0.06483261 0.016972113 0.079521745
0.01825288 0.08888436 -0.07207178 0.06353727 0.055878848 0.18959512 -0.27023712 0.21687947
-0.18332464 0.043910135 -0.3387422 -0.25702336 -0.09673887 -0.15493527 -0.047541227 0.014754228
-0.042112354 -0.27760434 0.27010292 0.11670226 -0.13524763 0.0017119795 -0.011631687 0.12985353
0.0058757327 0.09456172 -0.10978968 0.015547974 -0.23895743 -0.11421569 0.19872256 -0.0124163395
0.18122685 0.050860573 -0.04288209 -0.08869784 -0.20044428 0.10303095 -0.11563307 0.1432894
0.1478786 -0.12643139 -0.035619877 -0.1538153 0.15669358 -0.15834166 0.030368403 0.13289297
-0.24579948 0.021557255 0.060308088 -0.1187344 -0.033389803 0.059522957 0.1149275 0.2332438
0.024457736 0.036029533 0.0818163 0.08524493 0.31708005 -0.048536435 0.14780949 0.21521768
-0.1424378 0.0024163818 -0.059604336 0.03912506 -0.016931582 -0.12788422 -0.14208579 0.0465815
-0.252615 0.03945896 -0.025514668 0.15976438 0.057989787 -0.0514403 -0.028458383 0.0813767
0.08814812 -0.07185543 -0.02476074 -0.24858673 0.024405321 -0.07030735 0.13490319 -0.06831955
-0.08881803 0.11266773 0.029256862 -0.09174492 0.04464352 0.10054174 0.3140871 0.1256067
00000000: 531b 343d 6044 d9bd a22f 45be bec3 08bd
00000010: 14f8 633d 7a30 363e 64cc 10bd a4b2 a2bc
00000020: f179 fd3c d65d 41be e52c 263e 04a0 28be
00000030: d5f1 a4bd 9f93 64be ec14 723e 5eb3 9b3d
00000040: 21a2 90bd 7cf2 1f3d d7f9 9fbe 131a 0b3e
00000050: 8e45 c43d c18b 1bbe c7fa 14be 8061 c03d
00000060: 0e1f 553e 4bed 22be 036b 573e 596f 0c3e
00000070: f232 98bd 068e d8bd 1ddf 2b3e 9475 7e3e
00000080: b586 fc3d 9509 89bc 5509 453e 6927 a93d
00000090: 81cd 80be 6fc4 9abe 078f 80bd 92a4 40be
000000a0: e118 90bb a92e 243d ab41 053e d3eb 06be
000000b0: 1fb6 65be 7cf9 a6bd d670 943d 6926 e7bd
000000c0: 7475 eabd 79c6 b8bd 1c8a 4a3d e06d e7bc
000000d0: 3c4b 1fbe 9e42 323e cf3f b33d 9376 003e
000000e0: 6cd4 b2bd cbbb 3abe accd ac3d 7766 07be
000000f0: 9e51 aabe c07a 3b3d 7c01 c1bd 94a2 4cbe
00000100: 49a3 53bd 869f 783e cb6d 233d 19c9 e73d
00000110: 4b23 f5bd 1de3 5fbd efe6 153e 1fff 0abe
00000120: 4dc0 833d 8b51 a7bd 80a1 b33d f7b7 df3c
00000130: 1be6 923c ff3e 293d 8901 a13d 8a35 92bc
00000140: a455 5dbe 3dc4 413e 60f0 1abd 829a 273e
00000150: c6ba 1cbe d6a6 a23d 38a3 ceba 004f 69bd
00000160: e0ed bbbb a644 83be 4ca4 583e b016 c7bc
00000170: 9d33 2dbe 3b19 1cbe f982 403d 0486 8d3d
00000180: 565e f83d 375c 4d3e 3613 b2bd 3410 fd3d
00000190: 3005 10bc e86c b03d 13d7 1ebe a4e0 dbbd
000001a0: e10f 933d fa84 3a3e af3c 7a3e 0e14 4ebe
000001b0: cc46 b33d 5f54 82bd ba42 183e 391e 97be
000001c0: bd25 a2bc eb0e 913e e12a a13a 2638 a03c
000001d0: 8697 563e b1ab 1fbe 184c 08be 0bb5 e4bc
000001e0: fffa e33d ad76 94bd 9a40 1dbe 9e26 1d3c
000001f0: a11e ed3d 2178 87bd c658 0dbe 9b3c 08be
00000200: f551 c6bd 1383 f4bd e427 2fbe e988 02be
00000210: f50b 193d 6f84 593e 8ef7 08be d46a 4f3d
00000220: 7f2f 893e 2a22 c3bd 9f6d b83c 4da8 993c
00000230: 3211 673c 4123 a9bd e1e8 723e cb1b 14bd
00000240: c338 00be 73df e53c 4640 133e bb05 9e3e
00000250: 8b38 c7bd 1d08 453c 6421 afbc ec3c 253d
00000260: a744 b7bc 05e2 f03d 0a2b f93d 49df 3fbd
00000270: 1ac6 fe3d f6c6 843d 1a09 8b3c 4cdc a23d
00000280: 1087 953c 0109 b63d 5f9a 93bd d41f 823d
00000290: 38e1 643d 3925 423e 855c 8abe a715 5e3e
000002a0: 74b9 3bbe 1ddb 333d 9e6f adbe 9198 83be
000002b0: 071f c6bd 5aa7 1ebe 97ba 42bd b8bb 713c
000002c0: 017e 2cbd 2822 8ebe ee4a 8a3e 9801 ef3d
000002d0: 5b7e 0abe 8064 e03a d592 3ebc 53f8 043e
000002e0: 3889 c03b 93a9 c13d 69d9 e0bd eebc 7e3c
000002f0: 42b1 74be eae9 e9bd ed7d 4b3e e76d 4bbc
00000300: 8893 393e 2d53 503d 21a5 2fbd 37a7 b5bd
00000310: 4441 4dbe e401 d33d 08d1 ecbd 75ba 123e
00000320: 7d6d 173e 3b77 01be 26e6 11bd c281 1dbe
00000330: 4874 203e 5124 22be 28c7 f83c 1815 083e
00000340: dcb2 7bbe d798 b03c 9d05 773d 052b f3bd
00000350: bfc3 08bd 58ce 733d 1c5f eb3d 76d7 6e3e
00000360: 975b c83c b493 133d 4e8f a73d e594 ae3d
00000370: 5158 a23e 24ce 46bd 5f5b 173e 0662 5c3e
00000380: 37db 11be 295c 1e3b ad23 74bd 9941 203d
00000390: 1ab4 8abc 15f4 02be f07e 11be 3ecc 3e3d
000003a0: c156 81be b89f 213d 2304 d1bc 4699 233e
000003b0: b386 6d3d 10b3 52bd 8e21 e9bc d4a8 a63d
000003c0: 0087 b43d f128 93bd 09d7 cabc 858d 7ebe
000003d0: abed c73c 4dfd 8fbd 1024 0a3e 1feb 8bbd
000003e0: 3ae6 b5bd 57be e63d 16ac ef3c c3e4 bbbd
000003f0: 20dc 363d d4e8 cd3d 06d0 a03e 0b9f 003e

layer3.bias f4 [256]
0.08488839 0.017104631 -0.039966643 0.06879062 0.27124655 0.08837807 0.013245542 -0.03119712
0.081094176 -0.0068831635 0.10488865 -0.14204931 0.0126271555 0.04153421 -0.25003248 -0.07451422
0.013663727 0.2905855 0.01496371 -0.02428432 -0.093130544 -0.01079077 -0.11533985 0.1562326
0.39948863 0.013265557 -0.014870575 -0.14425898 0.14158022 -0.031306036 -0.059989125 -0.043928638
0.055738084 0.30238634 0.004285134 -0.08959389 0.07744058 -0.11470413 0.18658827 -0.025047278
-0.015680041 -0.07903078 0.10854022 -0.09045989 -0.032495767 -0.1777908 -0.11077661 0.01756442
-0.011549612 -0.092328794 -0.11537684 0.16870695 -0.025496677 0.1072105 0.04986428 0.17680083
0.14222318 -0.0059831003 -0.056588672 0.15549827 -0.022615967 0.05595042 0.11745433 0.079318136
0.20655525 0.26872945 -0.099760845 0.2551367 -0.09590857 0.13748568 -0.23799923 0.28977975
0.057435874 0.03769294 -0.055328563 -0.018243771 -0.009748852 -0.19462241 -0.07726675 0.21398959
-0.23248301 0.09076734 -0.0319064 -0.15301386 0.10268196 -0.029042674 -0.13116746 -0.015814159
0.054940894 0.15491529 0.4142295 0.05618628 0.037065495 0.05707294 -0.037692733 -0.10921458
0.054946635 0.05908592 -0.08445742 -0.03543912 -0.10084002 -0.03560006 0.055759925 -0.1569915
-0.062330853 -0.21627775 0.10736298 -0.17838499 0.16339737 -0.046731457 0.20236737 -0.13963793
0.22555459 -0.012897456 0.16030031 0.0043125954 0.004842104 0.2415691 0.26145044 0.19880816
-0.03537175 -0.055215698 -0.10989694 -0.09169381 0.012595037 -0.0010693177 -0.055598762 -0.01733192
-0.06503634 0.04149279 0.22371452 -0.20339932 0.25513563 0.11228254 -0.26655304 0.06421125
-0.115619265 0.15482502 -0.11011299 -0.19443008 -0.089797266 0.022627383 0.20626494 -0.1346861
-0.0054678465 0.13020636 0.32491574 0.08119432 -0.12994632 0.1006726 -0.101073824 -0.07733065
0.13220996 -0.15944639 0.064485855 0.14668444 0.048972193 -0.07940139 -0.19008283 0.020090505
-0.33022442 -0.030636676 0.16071527 -0.5473426 -0.32466567 0.06577524 0.05030169 -0.040215127
0.016375711 0.0081475 0.21138202 -0.027050901 0.34914032 -0.055227492 0.059760556 0.14635779
-0.0026210991 -0.077079825 0.12829039 -0.07307397 -0.24831091 -0.048219632 0.032955687 0.18606818
0.10667383 -0.00408265 -0.16562322 0.13749045 0.09678141 0.01757141 -0.09287817 0.17942007
0.15926212 -0.20144866 -0.046226177 -0.009947008 -0.036822688 0.28943667 -0.16633156 0.041936807
-0.22217038 0.29957864 0.040740468 0.15138727 -0.19924495 -0.044743385 -0.02483641 0.04320012
0.068045594 0.068552695 0.11785321 -0.056555573 0.017429203 -0.061093364 0.17667298 0.16430056
-0.09340722 -0.05170817 -0.12578163 -0.13664833 -0.25809908 0.056314852 -0.018101724 0.06782696
0.12135151 0.0945694 0.055124942 0.053097047 -0.1669225 -0.12268848 0.13915017 -0.002890918
-0.096796796 0.085969135 -0.112944484 0.060444396 -0.037851676 -0.33368462 -0.062761806 0.21238461
0.14737548 -0.0774508 0.17802691 -0.041881736 -0.021577409 -0.07512123 0.031352434 -0.3855293
-0.20650657 0.11433447 -0.06855939 -0.09245325 -0.17580464 -0.09828139 0.123460844 0.1259935
00000000: f7d9 ad3d 031f 8c3c 10b4 23bd 19e2 8c3d
00000010: d4e0 8a3e 90ff b43d d403 593c 1a91 ffbc
00000020: b414 a63d 298c e1bb dccf d63d 6075 11be
00000030: 21e2 4e3c c71f 2a3d 4204 80be e99a 98bd
00000040: d3dd 5f3c 9fc7 943e 592a 753c e9ef c6bc
00000050: 3abb bebd c5cb 30bc 4d37 ecbd 70fb 1f3e
00000060: c689 cc3e c757 593c b6a3 73bc a0b8 13be
00000070: 68fa 103e c23a 00bd 28b7 75bd 84ee 33bd
00000080: 9e4d 643d 62d2 9a3e 4f6a 8c3b 007d b7bd
00000090: 2b99 9e3d 00ea eabd ff10 3f3e f32f cdbc
000000a0: 6e73 80bc e4da a1bd 564a de3d 0943 b9bd
000000b0: 481a 05bd cb0e 36be d9de e2bd 42e3 8f3c
000000c0: 953a 3dbc e116 bdbd b14a ecbd 84c1 2c3e
000000d0: 68de d0bc 2e91 db3d 7d3e 4c3d 470b 353e
000000e0: f4a2 113e e20d c4bb 86c9 67bd f03a 1f3e
000000f0: 1f45 b9bc 452c 653d e58b f03d 8c71 a23d
00000100: 3883 533e e896 893e 6a4f ccbd 47a1 823e
00000110: b66b c4bd 0cc9 0c3e 12b6 73be 035e 943e
00000120: e141 6b3d ea63 1a3d 34a0 62bd f673 95bc
00000130: a6b9 1fbc 194b 47be 083e 9ebd 1620 5b3e
00000140: 0710 6ebe 3ae4 b93d 49b0 02bd aaaf 1cbe
00000150: eb4a d23d e7ea edbc c350 06be b28c 81bc
00000160: b409 613d 1da2 1e3e e415 d43e 9623 663d
00000170: fdd1 173d 51c5 693d b263 1abd e5ab dfbd
00000180: b90f 613d 1404 723d 03f8 acbd 9c28 11bd
00000190: 3685 cebd 5ed1 11bd 8564 643d 61c2 20be
000001a0: a34e 7fbd ea77 5dbe 1fe1 db3d 8eaa 36be
000001b0: a451 273e 7c69 3fbd 6439 4f3e 3ffd 0ebe
000001c0: c8f7 663e da4f 53bc c425 243e ac50 8d3b
000001d0: 83aa 9e3b e45d 773e d5dc 853e 5e94 4b3e
000001e0: f8e1 10bd db29 62bd a611 e1bd f7c9 bbbd
000001f0: 6a5b 4e3c 5928 8cba 87bb 63bd acfb 8dbc
00000200: c631 85bd 58f4 293d 6b15 653e e947 50be
00000210: 23a1 823e 63f4 e53d a479 88be 3081 833d
00000220: cbc9 ecbd 738a 1e3e eb82 e1bd ae18 47be
00000230: a1e7 b7bd 105d b93c 1e37 533e 27eb 09be
00000240: 9f2b b3bb d154 053e 5b5b a63e 3549 a63d
00000250: a610 05be 702d ce3d cbff cebd 885f 9ebd
00000260: 0c62 073e ea45 23be 2911 843d 7234 163e
00000270: 1197 483d 329d a2bd 13a5 42be d894 a43c
00000280: 2d13 a9be c4f9 fabc 8b92 243e a51e 0cbf
00000290: 943a a6be 2bb5 863d 2509 4e3d 9eb8 24bd
000002a0: 5b26 863c 187d 053c 8774 583e da99 ddbc
000002b0: 85c2 b23e 3936 62bd 7cc7 743d d1de 153e
000002c0: bfc6 2bbb 07dc 9dbd 8e5e 033e cea7 95bd
000002d0: 3745 7ebe f381 45bd 8bfc 063d a888 3e3e
000002e0: cf77 da3d c0c7 85bb 2299 29be 4cca 0c3e
000002f0: 5535 c63d ebf1 8f3c e936 bebd e5b9 373e
00000300: 9c15 233e 8f48 4ebe a957 3dbd c7f8 22bc
00000310: 63d3 16bd 0b31 943e d252 2abe eec5 2b3d
00000320: a280 63be 5f62 993e 7adf 263d 4405 1b3e
00000330: de06 4cbe d744 37bd ba75 cbbc 9cf2 303d
00000340: 7d5b 8b3d 5b65 8c3d 065d f13d d1a6 67bd
00000350: b0c7 8e3c 093d 7abd c3e9 343e 683e 283e
00000360: 494c bfbd f2cb 53bd e6cc 00be 8aed 0bbe
00000370: 9025 84be 67aa 663d 114a 94bc dce8 8a3d
00000380: 2487 f83d 9aad c13d b1ca 613d 4a7c 593d
00000390: bbed 2abe 1944 fbbd 627d 0e3e 8e75 3dbb
000003a0: 663d c6bd 9610 b03d 704f e7bd 8b94 773d
000003b0: 5c0a 1bbd b6d8 aabe 4389 80bd 5a7b 593e
000003c0: 99e9 163e 869e 9ebd b04c 363e 2f8c 2bbd
000003d0: 1bc3 b0bc 29d9 99bd 696b 003d 1964 c5be
000003e0: 7576 53be 3128 ea3d de68 8cbd 2158 bdbd
000003f0: 2206 34be c147 c9bd 0ad9 fc3d 7104 013e
